Image Classifiers/MNIST/lightning_logs/version_1/checkpoints/epoch=16.ckpt (torch_old, 95640 bytes, 6 tensors)

exp_avg f4 [10, 784]
00000000: 0000 0000 0000 0000 0000 0000 0000 0000
00000010: 0000 0000 0000 0000 0000 0000 0000 0000
00000020: 0000 0000 0000 0000 0000 0000 0000 0000
00000030: 0000 0000 0000 0000 0000 0000 0000 0000
00000040: 0000 0000 0000 0000 0000 0000 0000 0000
00000050: 0000 0000 0000 0000 0000 0000 0000 0000
00000060: 0000 0000 0000 0000 0000 0000 0000 0000
00000070: 0000 0000 0000 0000 0000 0000 0000 0000
00000080: 0000 0000 0000 0000 0000 0000 0000 0000
00000090: 0000 0000 0400 0000 0400 0000 3b0c d98f
000000a0: 1381 5690 f459 b08f 0400 0000 0400 0000
000000b0: 0400 0000 0400 0000 0400 0000 0400 0000
000000c0: 0000 0000 0000 0000 0000 0000 0000 0000
000000d0: 0000 0000 0000 0000 0000 0000 0000 0000
000000e0: 0000 0000 0000 0000 0000 0000 e7f0 0903
000000f0: 0400 0080 0400 0000 0400 0080 0400 0080
00000100: 0400 0080 0400 0000 f8e2 eb35 2f0b 6a39
00000110: 365f 8839 0314 9fb4 ed90 04b7 40f6 6cb7
00000120: e469 22b5 bbc7 eeb3 413d 2490 73f3 9290
00000130: 0400 0000 0400 0000 0400 0000 0400 0000
00000140: 0400 0000 0000 0000 0000 0000 0000 0000
00000150: 0000 0000 0000 0000 0400 0000 4cf6 8504
00000160: 4f70 6904 4d87 feb1 8b28 94b1 a666 edad
00000170: 77a0 653a c1ad 2f3b f763 df3a 007e ea39
00000180: cc02 d139 a00a 5b35 bfd6 9cb8 1db4 f5b7
00000190: 6537 7ab7 9db1 9db7 819e 2fb7 fe15 28b7
000001a0: 4c46 0db7 5266 db2e f36c 8db0 7b4a 9baf
000001b0: 043b d52c 0400 0080 0400 0000 0000 0000
000001c0: 0000 0000 0000 0000 0400 0000 d93a 119e
000001d0: 0400 0080 8100 482f aa58 8932 be00 9034
000001e0: 14d4 b139 7ccb 2c3b cf47 433b e782 343a
000001f0: 6d47 d139 68c5 6cb8 89fc c5b8 b4cd 34b9
00000200: dbe3 a9b9 201a 38ba b7cd bbba 7b90 f9ba
00000210: 7124 67ba e70c 42b7 6a46 46b6 0deb a7b3
00000220: 05d9 b32e d142 d015 0400 0000 0000 0000
00000230: 0000 0000 0000 0000 0400 0000 020d aab3
00000240: c159 41b6 ae90 bcb5 5ef9 1535 e0e8 f636
00000250: 27e0 853a 4071 343b 3b41 4a3b 642b 103a
00000260: 2d12 2a37 983c 93b8 93a5 37b8 33dc 31b9
00000270: f028 13ba c485 0ebb ce6f 18bb 7acb 16bb
00000280: ae2e ccba 3077 dc38 5b5d e838 c25d 1138
00000290: acf6 23b3 4ed9 e427 0400 0000 0400 0000
000002a0: 0000 0000 0400 0000 0400 0000 75fc 0213
000002b0: 010a 93b6 e29b 8fb6 0fd5 25b6 cca3 afb7
000002c0: 61b2 963a ce9c 403b e4a7 3f3b 2374 df39
000002d0: 167c 2a38 dda5 c5b6 2976 6ab8 857d 51ba
000002e0: 1a66 f1ba befb 0cbb 19d6 11bb 6fae a0ba
000002f0: 0974 89b9 4951 3939 1c8a b239 1ad4 a639
00000300: 3f33 b338 6588 3037 5abf 0928 0400 0080
00000310: 0000 0000 0400 0000 0400 0000 5a99 f514
00000320: 80b8 26b6 7dc0 87b5 b987 7336 198e 68b8
00000330: d84f f13a b717 533b 4bc9 143b 181e 2639
00000340: a2d4 0739 0718 1e39 64a8 f9b9 b967 1dbb
00000350: b166 24bb b575 04bb c228 ddba 93ba 9cb9
00000360: e59d 143a a468 ea39 5791 f839 1940 ce39
00000370: 035c 8139 5e1c 8537 acb7 321c 0400 0080
00000380: f024 77b9 0400 0000 0400 0000 e744 33a0
00000390: 1083 1d35 9c06 0737 a21d 9bb7 e501 b339
000003a0: 9685 403b 1852 5d3b 48c2 8f3a 1086 6d39
000003b0: 9282 e838 98c0 683a a1c3 c5b8 3d96 90ba
000003c0: 81b8 f9ba 88d0 18bb c058 0cbb 2188 2cba
000003d0: 11b8 1b3a 20b5 113a cea0 633a e422 333a
000003e0: fbc6 9339 58cc ed34 cd89 9f1a 0400 0000
000003f0: 0000 0000 0400 0000 0400 0000 1a26 342e
0.0 0.0 0.0 0.0 0.0 0.0 0.0 0.0
0.0 0.0 0.0 0.0 0.0 0.0 0.0 0.0
0.0 0.0 0.0 0.0 0.0 0.0 0.0 0.0
0.0 0.0 0.0 0.0 0.0 0.0 0.0 0.0
0.0 0.0 0.0 0.0 0.0 6e-45 6e-45 -2.1402563e-29
-4.2303494e-29 -1.7389589e-29 6e-45 6e-45 6e-45 6e-45 6e-45 6e-45
0.0 0.0 0.0 0.0 0.0 0.0 0.0 0.0
0.0 0.0 0.0 4.0537224e-37 -6e-45 6e-45 -6e-45 -6e-45
-6e-45 6e-45 1.7574921e-06 0.00022320145 0.0002601088 -2.9630618e-07 -7.901556e-06 -1.4124031e-05
-6.0503794e-07 -1.11190694e-07 -3.2390485e-29 -5.796194e-29 6e-45 6e-45 6e-45 6e-45
6e-45 0.0 0.0 0.0 0.0 0.0 6e-45 3.1494338e-36
2.7440588e-36 -7.407755e-09 -4.311976e-09 -2.6989366e-11 0.0008759568 0.0026806446 0.0017043342 0.00044725835
0.0003986567 8.159932e-07 -7.478659e-05 -2.9290148e-05 -1.4914059e-05 -1.8798566e-05 -1.0467717e-05 -1.0018701e-05
-8.420622e-06 9.977143e-11 -1.0290065e-09 -2.8247257e-10 6.060376e-12 -6e-45 6e-45 0.0
0.0 0.0 6e-45 -7.6884055e-21 -6e-45 1.8190073e-10 1.5989219e-08 2.682263e-07
0.0003391808 0.0026366403 0.002979744 0.0006885961 0.00039916803 -5.6450634e-05 -9.44073e-05 -0.00017242768
-0.00032403957 -0.0007022936 -0.0014328276 -0.0019040251 -0.0008817381 -1.1566305e-05 -2.9545286e-06 -7.819299e-08
8.178528e-11 8.411595e-26 6e-45 0.0 0.0 0.0 6e-45 -7.918608e-08
-2.8811485e-06 -1.4049199e-06 5.58697e-07 7.3584815e-06 0.0010213897 0.0027533323 0.0030861634 0.000549963
1.01370215e-05 -7.020793e-05 -4.3784803e-05 -0.00016962066 -0.0005613705 -0.002174721 -0.002326 -0.0023009465
-0.0015577876 0.00010512618 0.00011080011 3.4658013e-05 -3.817574e-08 6.3518315e-15 6e-45 6e-45
0.0 6e-45 6e-45 1.6532778e-27 -4.382106e-06 -4.2798792e-06 -2.4710932e-06 -2.09379e-05
0.0011497253 0.0029390338 0.0029244358 0.00042620403 4.0646722e-05 -5.8903665e-06 -5.5899993e-05 -0.0007991421
-0.001841727 -0.0021512355 -0.0022252856 -0.0012259017 -0.0002621713 0.00017673256 0.00034053705 0.00031820015
8.5449305e-05 1.0522174e-05 7.6465205e-15 -6e-45 0.0 6e-45 6e-45 2.4799165e-26
-2.484332e-06 -1.0114305e-06 3.6288823e-06 -5.544545e-05 0.0018410636 0.003221018 0.0022702988 0.00015842204
0.00012953815 0.00015077005 -0.00047618442 -0.0024018122 -0.0025085623 -0.002021176 -0.0016873109 -0.00029893647
0.000566928 0.0004470992 0.00047410533 0.00039339138 0.0002467335 1.5868045e-05 5.913265e-22 -6e-45
-0.00023569516 6e-45 6e-45 -1.5184688e-19 5.867778e-07 8.048166e-06 -1.8491239e-05 0.00034142952
0.0029376498 0.0033770856 0.0010967935 0.00022652023 0.00011086943 0.00088787964 -9.430131e-05 -0.0011031103
-0.0019052179 -0.0023317654 -0.0021415204 -0.0006581564 0.0005940209 0.0005558301 0.00086833246 0.0006833507
0.00028186277 4.429337e-07 6.598349e-23 6e-45 0.0 6e-45 6e-45 4.0961103e-11

exp_avg_sq f4 [10, 784]
00000000: 0000 0000 0000 0000 0000 0000 0000 0000
00000010: 0000 0000 0000 0000 0000 0000 0000 0000
00000020: 0000 0000 0000 0000 0000 0000 0000 0000
00000030: 0000 0000 0000 0000 0000 0000 0000 0000
00000040: 0000 0000 0000 0000 0000 0000 0000 0000
00000050: 0000 0000 0000 0000 0000 0000 0000 0000
00000060: 0000 0000 0000 0000 0000 0000 0000 0000
00000070: 0000 0000 0000 0000 0000 0000 0000 0000
00000080: 0000 0000 0000 0000 0000 0000 0000 0000
00000090: 0000 0000 1816 5e1b 322e 0f1d ae12 1333
000000a0: 67a5 0f34 ab2e c232 625e f81c b34b 0b20
000000b0: df94 c820 d63e f01e 6857 5f1c a80f 631a
000000c0: 0000 0000 0000 0000 0000 0000 0000 0000
000000d0: 0000 0000 0000 0000 0000 0000 0000 0000
000000e0: 0000 0000 0000 0000 0000 0000 4a46 132f
000000f0: 4d35 742d 18c7 5d25 a5bf 9031 3d7a fe31
00000100: 634d 5530 1f25 9a30 b974 8130 a5c1 b333
00000110: ee69 6634 f63a 4633 46cc 0133 efa2 9932
00000120: 3a52 d733 095d 6833 e063 a631 422f 9830
00000130: 1849 922c 6143 4027 f2c9 a625 e9d4 dc1c
00000140: e260 a21b 0000 0000 0000 0000 0000 0000
00000150: 0000 0000 0000 0000 28fa 9916 2ea9 0a31
00000160: 185a 7830 eead d630 8b21 cb31 eb2c ba32
00000170: e339 8134 761b aa35 2234 9f35 5277 0936
00000180: 8cd7 0e36 19b0 2d36 9946 3d36 c86b 2436
00000190: c9f7 6f36 a776 6436 bbf7 2936 18b4 0c36
000001a0: 7405 a035 6716 3d35 ac12 3534 ca24 9631
000001b0: b74e 2431 acac 0b31 3108 012f 0000 0000
000001c0: 0000 0000 0000 0000 371e 9e18 8367 9f2a
000001d0: 9298 9d2e 2164 f030 a87c c333 b20a ab35
000001e0: ce27 2236 0c44 7336 acf8 bc36 0b73 b836
000001f0: 6dd1 e736 aea6 1a37 9be5 4a37 0c3e 8237
00000200: 7a0c 9037 8392 8137 c079 4437 d699 1b37
00000210: 363f df36 c6cf 6e36 c922 0936 1600 8d35
00000220: 7919 2d35 4dd0 a831 9b48 522d 0000 0000
00000230: 0000 0000 0000 0000 3062 4529 70cc e92e
00000240: 4628 5730 8841 a833 683f 0636 5160 5a36
00000250: a603 b236 b406 f536 1cef 3037 5fca 6437
00000260: 73b1 9b37 84ec c537 b4d7 eb37 0302 fb37
00000270: 3ca8 0338 3997 0738 a04f ed37 b7cf ab37
00000280: e2d5 7337 fa66 1e37 8ed5 a936 a1e5 3336
00000290: bb9d a435 0f92 1c33 747d 252c bd2e e82c
000002a0: 0000 0000 c130 7616 5f86 9b29 cbc2 9d2a
000002b0: f337 1632 2595 5d35 5cb3 6f36 41fe 9b36
000002c0: 76da 0237 9b39 3f37 184a 8737 683d ad37
000002d0: 8635 d637 8163 0f38 33ae 2338 d982 2f38
000002e0: 20e5 3738 bee7 3738 4033 2c38 7b61 0e38
000002f0: 399c c837 b5dd 7237 a8cf 1037 bdad 6e36
00000300: 782f 9235 c67b 2533 9ea5 a230 5e16 2c2e
00000310: 0000 0000 f40c 042b 46cb 6b2c 7453 462d
00000320: 2963 a233 d9dc ca35 f541 8436 cef4 c836
00000330: 3780 2437 2cc6 7e37 7eef b837 43c4 d937
00000340: de42 1138 575b 3b38 a8fc 4038 57cd 4638
00000350: 7551 4838 22fd 3e38 b78b 3938 0cc0 1e38
00000360: 0b1c f837 1262 a137 342d 5637 3a3f d136
00000370: 406a be35 932a 7d34 7b37 6833 d661 2c2d
00000380: 86f8 2233 ae86 6922 cadf d530 e5a5 4b32
00000390: 5e69 8933 8afd f135 8ccf a236 6368 0a37
000003a0: def3 7a37 05af af37 6d1f e737 554a 1738
000003b0: 6f84 2938 15bc 3238 ab71 3938 7d23 4038
000003c0: 0e33 4f38 c7a7 4838 b00e 2e38 6f09 1a38
000003d0: 280a fd37 3378 be37 7ff6 8637 4683 2637
000003e0: 4fb3 1836 8bff 9533 7fee b532 991f 2028
000003f0: 0000 0000 7d2a 8219 f9c3 8f2f 19f4 e333
0.0 0.0 0.0 0.0 0.0 0.0 0.0 0.0
0.0 0.0 0.0 0.0 0.0 0.0 0.0 0.0
0.0 0.0 0.0 0.0 0.0 0.0 0.0 0.0
0.0 0.0 0.0 0.0 0.0 0.0 0.0 0.0
0.0 0.0 0.0 0.0 0.0 1.8370548e-22 1.8949775e-21 3.4243094e-08
1.3378086e-07 2.2605795e-08 1.6435661e-21 1.1798805e-19 3.3979833e-19 2.5436977e-20 7.389748e-22 4.6955147e-23
0.0 0.0 0.0 0.0 0.0 0.0 0.0 0.0
0.0 0.0 0.0 1.3394544e-10 1.3881629e-11 1.923615e-16 4.212739e-09 7.40627e-09
7.759892e-10 1.1215525e-09 9.41916e-10 8.370561e-08 2.1458956e-07 4.6154092e-08 3.022094e-08 1.7885638e-08
1.00266746e-07 5.4101324e-08 4.8425903e-09 1.1072887e-09 4.1576846e-12 2.6681879e-15 2.8933253e-16 1.4613415e-21
2.686326e-22 0.0 0.0 0.0 0.0 0.0 2.4876354e-25 2.017781e-09
9.0349905e-10 1.5619983e-09 5.911891e-09 2.1673676e-08 2.407024e-07 1.2673979e-06 1.1861596e-06 2.0484044e-06
2.1285114e-06 2.5881511e-06 2.8204288e-06 2.4500641e-06 3.5758005e-06 3.4043712e-06 2.532716e-06 2.0966454e-06
1.1922516e-06 7.0440586e-07 1.6863731e-07 4.369757e-09 2.3909885e-09 2.0325315e-09 1.1735392e-10 0.0
0.0 0.0 4.087255e-24 2.83159e-13 7.166635e-11 1.7490757e-09 9.10307e-08 1.2743606e-06
2.416305e-06 3.624943e-06 5.631786e-06 5.49702e-06 6.908717e-06 9.217923e-06 1.2093597e-05 1.55261e-05
1.7171948e-05 1.5446223e-05 1.17108575e-05 9.274538e-06 6.6532766e-06 3.5585704e-06 2.0434838e-06 1.0505344e-06
6.448459e-07 4.9131246e-09 1.195324e-11 0.0 0.0 0.0 4.382795e-14 1.0631929e-10
7.8273776e-10 7.83503e-08 2.0004463e-06 3.2540595e-06 5.305238e-06 7.3023493e-06 1.05460895e-05 1.3636977e-05
1.8560071e-05 2.3594366e-05 2.8114628e-05 2.9922468e-05 3.1389514e-05 3.2327345e-05 2.828968e-05 2.0481513e-05
1.4533727e-05 9.44151e-06 5.0614535e-06 2.680674e-06 1.2264858e-06 3.645442e-08 2.351755e-12 6.5990256e-12
0.0 1.9887106e-25 6.9066924e-14 2.8023967e-13 8.7438705e-09 8.254595e-07 3.5718176e-06 4.648959e-06
7.799468e-06 1.13978995e-05 1.6127757e-05 2.0651802e-05 2.5535712e-05 3.4186527e-05 3.9024464e-05 4.1845113e-05
4.384399e-05 4.3846427e-05 4.1055726e-05 3.3946224e-05 2.3914605e-05 1.4475944e-05 8.631418e-06 3.5565893e-06
1.0891663e-06 3.8529627e-08 1.1834123e-09 3.9128138e-11 0.0 4.6913797e-13 3.3508348e-12 1.1273527e-11
7.56175e-08 1.5114448e-06 3.941585e-06 5.9889635e-06 9.805014e-06 1.518572e-05 2.2046032e-05 2.5959807e-05
3.463297e-05 4.466934e-05 4.601167e-05 4.7398116e-05 4.775958e-05 4.553528e-05 4.4237557e-05 3.7848993e-05
2.9576962e-05 1.9238363e-05 1.2765919e-05 6.236046e-06 1.4187026e-06 2.357795e-07 5.406717e-08 9.798792e-12
3.7944595e-08 3.1648687e-18 1.5561394e-09 1.1853875e-08 6.398726e-08 1.8029689e-06 4.852138e-06 8.249745e-06
1.4957941e-05 2.0943125e-05 2.755198e-05 3.6070433e-05 4.041608e-05 4.2613672e-05 4.42133e-05 4.580942e-05
4.9400194e-05 4.783997e-05 4.149851e-05 3.6725247e-05 3.016468e-05 2.2705737e-05 1.6088828e-05 9.9249355e-06
2.2754136e-06 6.984836e-08 2.1179629e-08 8.888636e-15 0.0 1.3458846e-23 2.6150795e-10 1.0614912e-07

exp_avg f4 [10]
00000000: 0e40 9c39 bc80 b0b9 603a f83a cdff a439
00000010: 0400 0000 da93 97bb 0400 0000 fc29 07ba
00000020: 0400 0000 d38e 9fba
0.00029802363 -0.0003366525 0.0018938296 0.00031471104 6e-45 -0.0046257796 6e-45 -0.00051560975
6e-45 -0.0012173302

exp_avg_sq f4 [10]
00000000: 786e c938 f70c de38 7989 7b39 cc6b a739
00000010: 99c6 fe1d a2c9 9a39 38f7 9f1e 172e 5a39
00000020: a4dc 5820 4263 ce39
9.605003e-05 0.000105882 0.00023988438 0.00031933037 6.7438585e-21 0.00029523397 1.6937027e-20 0.0002080727
1.8368916e-19 0.00039365335

l1.weight f4 [10, 784]
00000000: 9a6d 86bc a841 d53b 1c8f 8d3c 6ecd 03bc
00000010: 8e42 e8bc 80f4 e2bb 0017 e939 834d a4bc
00000020: e02d 07bc 08bd b5bc f295 983c f8fb 2ebc
00000030: 2039 fd3b a3c3 03bd 082e 89bb 2eaa f63c
00000040: 3364 043d 3efb e33c d29e f23c 20c1 8b3a
00000050: b85e a23b 44ec 2c3c f824 833c 7e50 acbc
00000060: eecb 5ebc 0e63 0cbd 6e22 e13c 404c 08bc
00000070: 9cc9 13bc 20dc 4fbc c0ec 803c 48ef 7e3c
00000080: 16bf bd3c 8000 4e3a 98d5 bd3b 30aa ec3b
00000090: 40c4 a8bb be91 92bc afbd c9bc 7331 c73e
000000a0: 15b5 df3e a27a d33e b8b2 d3bd 8094 19be
000000b0: 4547 e9bd 01b1 afbd 9d70 dcbc 4816 cdbc
000000c0: 561d d13c 8080 2b3b fc72 323c 9678 e83c
000000d0: 7552 dbbc 4096 9d3a caba d9bc 1509 003d
000000e0: 2e0f 33bc ae84 9d3c 6028 ef3b 049d 863e
000000f0: 5ef8 e83e 7ba2 55be f683 fbbe c78b 1cbe
00000100: 33a2 3ebf d0b6 7ebf c83a 4bbf 1b88 9cbe
00000110: 6895 cfbe a9f8 2ebf 65be 91bf 9db5 c3bf
00000120: 5e23 89bf c1d0 9dbf bb27 b4bf 16cf 2cbf
00000130: e616 64bf b703 e7be 4474 95be d8f4 d6bd
00000140: b3a9 6fbc 9541 83bc 332b 0dbd 28b3 b3bc
00000150: 18ca 533c d08b 84bc 4d02 7cbc 9fa0 6e3d
00000160: 47dd 9abe c9ae e6be 2198 67bf 6453 4cbf
00000170: 7bbd 5dbf 65f2 56bf fc50 6ebf 3954 24bf
00000180: 1b6c 22bf 932a 8fbe d236 bdbe a167 0bbf
00000190: 0c51 4dbe f927 ebbe d2da 46bf 0a70 42bf
000001a0: b213 34bf 8e85 60bf 00fe 58bf abdd d7be
000001b0: b629 8dbe 45a0 cdbe b8be e2be f61e 943c
000001c0: d3b8 81bc 3519 a8bc f6bf 143c fe0c 4f3d
000001d0: dfd1 c4be 3292 3cbf acd1 11bf 9a61 eebd
000001e0: 37dc 0a3e 4554 1f3e 212a 7e3c b597 743e
000001f0: cd3b 5abd c645 153e 5e4d f7bd d8cb e23c
00000200: b736 0fbe 0c51 233d 6188 163d d864 debd
00000210: d43c bebd 2037 cfbe 3135 39be 29dc 5ebe
00000220: c818 22bf 708f 86bf a0c8 15bf e8e8 ebbc
00000230: 606a c93c c0f2 ea3a f547 d8be eda4 043c
00000240: 881f 08bf bd90 73bf 335e 75bc 25de cfbc
00000250: 4f10 cb3d 8c92 c1bc bfc7 5b3e 8def 413c
00000260: b2ed 83bd a8cf f43d db91 823e 80a0 e63d
00000270: 4ee6 2f3e bedd 0b3e 6180 2e3e 4f27 e73c
00000280: 9338 5cbd 4636 1f3d 2051 623d 0b23 7cbe
00000290: f3fb 09bf 146e afbf 4ef5 53bf 5610 efbe
000002a0: 4013 ce3c 7a7a abbb d66a c6be b830 01bf
000002b0: f6e0 d5be 4f5c 40be 69f3 8b3d c6b0 753d
000002c0: 6670 0cbe 95ab f5be 486f 6bbd eba8 01be
000002d0: c242 f4bc 9d95 393e 8566 223e 86e3 5f3d
000002e0: f2b2 88bd 6fb7 063e ebe9 413e d85a e0bc
000002f0: 1120 86bd 1e9e 9d3e cba7 d63e 99e8 02be
00000300: 1743 47bf 8451 d9bf c27c a9bf 6d3e 17bf
00000310: 6ed1 9dbc 8e97 bdbe 4afb e4be 42df 01bf
00000320: ebc5 0fbf bd4f fb3d 8f58 883e df3d 873d
00000330: 7485 f4be 78e3 533c a893 1a3e baf2 6f3e
00000340: cb01 1e3d 2a98 483e 5db7 843d 0204 c43d
00000350: d542 a93d 5e47 d63e 5e0f b73e 37c3 b93e
00000360: fae4 db3d d6b2 bb3d 4c86 20be 6cef 373d
00000370: e8a5 eebe ccda 82bf df82 88bf 72ec ddbd
00000380: 32f1 c53e df09 17bd b77b 9c3e 1fc0 d63e
00000390: 6cc0 43bf 05aa 1d3e ac93 be3e f12d 2a3d
000003a0: 6643 74bd 01cf 1d3e 736d ea3d fdc1 30bb
000003b0: c476 a63e 4962 0f3e 37cf c33e 363f eb3e
000003c0: 593d 4a3f 2a0f 0e3f bf7d ce3e 913f 503e
000003d0: 3b5d 2e3e ee6d d93d cf85 813c 18cd d53e
000003e0: 51d6 96be 287e a7bf e022 9dbf e7d0 c0be
000003f0: 5f25 06bd aed5 9ebc b93b b43e 571a 9d3e
-0.016409684 0.006508071 0.017280154 -0.008044584 -0.028352048 -0.0069261193 0.0004445836 -0.020056492
-0.008250684 -0.022184864 0.018626187 -0.010680191 0.007727757 -0.032168996 -0.0041863956 0.030110445
0.03232212 0.027829763 0.029616747 0.0010662414 0.004955139 0.010554377 0.016008839 -0.021034475
-0.013598425 -0.034274153 0.027482238 -0.008318961 -0.009020235 -0.012686759 0.015737891 0.015559979
0.023162406 0.0007858351 0.0057932846 0.0072224364 -0.005150348 -0.01789176 -0.024626581 0.38904914
0.43692842 0.413045 -0.10336822 -0.14998055 -0.11390547 -0.08578683 -0.026909167 -0.025035039
0.025526684 0.0026169121 0.010891672 0.028377812 -0.026772717 0.0012022927 -0.026578326 0.03125866
-0.010928912 0.019228306 0.0072985142 0.26291668 0.4550199 -0.20862763 -0.49124116 -0.15287696
-0.74466246 -0.994977 -0.7938657 -0.3057259 -0.40543675 -0.68348175 -1.1386229 -1.5289799
-1.0713918 -1.2329332 -1.4074625 -0.6750349 -0.8909744 -0.45120022 -0.29190266 -0.10495919
-0.014627862 -0.016022483 -0.034465026 -0.021936014 0.012926601 -0.016179949 -0.015381408 0.05825865
-0.30246946 -0.45055225 -0.90466505 -0.79814744 -0.8661725 -0.83963615 -0.9309232 -0.64191014
-0.63446206 -0.2796217 -0.36955887 -0.54455 -0.20050448 -0.45928934 -0.77677643 -0.7595221
-0.7034255 -0.8770379 -0.84762573 -0.42161307 -0.27570885 -0.40161338 -0.44286132 0.01808117
-0.015835201 -0.020519832 0.00907897 0.0505495 -0.3844137 -0.73660576 -0.5696056 -0.1163971
0.13560568 0.1555949 0.015512974 0.23885997 -0.053279687 0.14577398 -0.120753035 0.02768509
-0.13985716 0.039872214 0.036751155 -0.10859078 -0.09288946 -0.40471745 -0.18086697 -0.21763672
-0.63319063 -1.0512524 -0.58509254 -0.028797582 0.024586856 0.0017925128 -0.422424 0.008095962
-0.5317311 -0.9514273 -0.014976072 -0.025374481 0.0991522 -0.02362945 0.21462916 0.0118368985
-0.06441821 0.1195367 0.25501904 0.11261082 0.17177698 0.13658807 0.1704116 0.028216986
-0.05376489 0.03887012 0.055253148 -0.24622743 -0.5390007 -1.3705468 -0.8279618 -0.4669215
0.025155663 -0.005233106 -0.38753384 -0.50464964 -0.41773194 -0.18785213 0.06833536 0.059983037
-0.13714752 -0.4798247 -0.057479173 -0.12662093 -0.029816989 0.18123479 0.1585942 0.054660343
-0.06674756 0.13155912 0.18936889 -0.027387068 -0.06549085 0.30784696 0.4192489 -0.12784041
-0.77836746 -1.6978002 -1.3241198 -0.5907963 -0.019264903 -0.3702969 -0.44722968 -0.5073129
-0.56161374 0.12271068 0.26630065 0.06603598 -0.47758067 0.012932651 0.15095389 0.23432437
0.03857593 0.19589296 0.06480286 0.09571077 0.082647 0.41851324 0.35753912 0.3628175
0.10737033 0.091649696 -0.1567623 0.044906065 -0.4661095 -1.0223022 -1.0664939 -0.10836114
0.3866058 -0.03687465 0.30563137 0.41943452 -0.7646549 0.15396889 0.3722204 0.04154772
-0.05963459 0.15410997 0.11446657 -0.0026971095 0.32512486 0.14002337 0.3824403 0.45946664
0.7899986 0.5549189 0.40330312 0.20336749 0.17027752 0.106166705 0.015810875 0.41758037
-0.29460385 -1.3085375 -1.2276268 -0.3765938 -0.032750484 -0.019389 0.35201815 0.30684158

l1.bias f4 [10]
00000000: 020f 88be a3c5 5a3f a8bd 743f 708e ab3d
00000010: 3d29 b4bc e5c1 0e40 6ef1 833c 1dac 9b3f
00000020: e967 2b3c 071f 03bd
-0.2657395 0.8545782 0.9560189 0.08376777 -0.02199232 2.2305844 0.016106334 1.21619
0.010461786 -0.03201201
