Image Classifiers/MNIST/lightning_logs/version_2/checkpoints/epoch=1.ckpt (torch_old, 95640 bytes, 6 tensors)

exp_avg f4 [10, 784]
0.0 0.0 0.0 0.0 0.0 0.0 0.0 0.0
0.0 0.0 0.0 0.0 0.0 0.0 0.0 0.0
0.0 0.0 0.0 0.0 0.0 0.0 0.0 0.0
0.0 0.0 0.0 0.0 0.0 0.0 0.0 0.0
0.0 0.0 0.0 6e-45 6e-45 6e-45 9.216692e-19 8.75585e-18
4.8848407e-18 1.37e-43 5.87e-43 5.516722e-23 8.5793345e-11 4.1705098e-11 6e-45 6e-45
6e-45 6e-45 0.0 0.0 0.0 0.0 0.0 0.0
0.0 0.0 0.0 2.2336614e-13 -2.32414e-40 2.4082651e-26 -1.6862713e-06 -5.158006e-07
1.6842463e-23 9.50028e-24 5.3917684e-18 1.288674e-11 8.32413e-11 4.2273236e-06 2.5052837e-05 4.1054627e-05
3.4932345e-05 2.600942e-06 1.0187513e-08 7.707991e-07 2.5972433e-06 5.8981374e-07 1.3988676e-27 3.4142052e-34
2.3832517e-34 6e-45 0.0 0.0 0.0 0.0 0.0 1.7353839e-12
1.5120179e-12 -2.1128837e-17 -1.2298861e-17 1.882382e-23 6.0394655e-14 1.4199184e-09 -1.4957108e-10 8.2667447e-07
9.098406e-06 -9.953202e-05 -0.00012906897 0.000132646 0.00034646664 0.00030018663 3.4159955e-05 4.3941993e-05
6.666085e-05 9.255836e-05 2.0349806e-07 1.2479326e-07 6.90002e-08 -1.1613267e-11 3.226953e-31 0.0
0.0 0.0 6e-45 1.7421013e-10 1.3725644e-10 9.06016e-09 8.131037e-08 -1.956982e-07
5.6718956e-05 9.5446325e-05 -1.2887254e-05 -6.704809e-05 -0.0005783303 -0.0002102061 0.00018848843 -0.0014014143
-0.00089338503 0.00048548012 3.6173788e-05 1.7042803e-05 0.000157235 0.0001444083 1.7912245e-05 -5.6332574e-06
-2.949512e-08 1.2794691e-09 1.0298794e-31 0.0 0.0 0.0 2.2177034e-09 4.4872314e-10
1.06077884e-07 1.9210545e-06 2.2026275e-06 -2.9186693e-05 -2.6341117e-05 1.1696257e-05 -0.00021695932 0.0002317263
0.00029452622 9.246827e-05 -0.00089272356 -0.0014628827 -0.0008424234 -0.00053059304 0.0012232475 0.00092410314
0.0010824654 0.000552241 2.9296181e-05 -1.5249003e-05 -4.9664885e-07 1.6497198e-08 1.7999952e-35 4.3081136e-35
0.0 0.0 5.4031558e-18 6e-45 3.0307916e-07 3.97409e-06 4.302065e-06 -7.6373435e-05
-0.00013170834 -6.371426e-05 -0.00047657717 7.755496e-05 0.000109691195 0.000279891 -0.0014682674 -0.0020420686
-0.0019376733 -0.00017055159 0.0020778882 0.0011609778 0.0013764042 0.0008134822 0.00033529697 2.3395685e-05
2.299509e-05 -8.7438465e-08 -1.6016416e-07 -1.0629075e-06 0.0 0.0 6e-45 8.415321e-26
4.681433e-07 1.6714378e-06 -1.0229688e-05 -0.00016907073 -0.00034398318 -0.00038065336 3.533986e-05 -8.309758e-06
0.0008929984 -2.153168e-05 -0.00034201398 0.00049274304 0.0020826492 0.003149215 0.003964409 0.0029542167
0.0032084605 0.003342065 0.0017307572 0.00025112636 5.1951407e-05 -1.6749868e-10 -1.6016416e-07 -2.2422983e-06
-1.748748e-07 6e-45 -6e-45 2.677604e-25 2.5259766e-05 2.6718495e-05 -7.28081e-05 -8.8046996e-05
-0.00019353621 0.0010816824 0.001848491 0.0023534424 0.0029894824 0.0013016303 0.00061396987 0.00032144028
0.0009961427 0.0027385273 0.0031957335 0.0011418182 0.0017855337 0.0024635145 0.0018130176 0.0007755655
1.7374843e-05 2.0008572e-06 9.7054864e-23 1.505874e-23 0.0 6e-45 -6e-45 3.0027423e-25
00000000: 0000 0000 0000 0000 0000 0000 0000 0000
00000010: 0000 0000 0000 0000 0000 0000 0000 0000
00000020: 0000 0000 0000 0000 0000 0000 0000 0000
00000030: 0000 0000 0000 0000 0000 0000 0000 0000
00000040: 0000 0000 0000 0000 0000 0000 0000 0000
00000050: 0000 0000 0000 0000 0000 0000 0000 0000
00000060: 0000 0000 0000 0000 0000 0000 0000 0000
00000070: 0000 0000 0000 0000 0000 0000 0000 0000
00000080: 0000 0000 0000 0000 0000 0000 0400 0000
00000090: 0400 0000 0400 0000 ae03 8821 5584 2123
000000a0: 0438 b422 6200 0000 a301 0000 db62 851a
000000b0: 5ca9 bc2e c46b 372e 0400 0000 0400 0000
000000c0: 0400 0000 0400 0000 0000 0000 0000 0000
000000d0: 0000 0000 0000 0000 0000 0000 0000 0000
000000e0: 0000 0000 0000 0000 0000 0000 e87c 7b2a
000000f0: e087 0280 c680 ee14 d753 e2b5 8c75 0ab5
00000100: ebe3 a219 1cc3 3719 d0eb c622 b8b4 622d
00000110: b00c b72e 6fd8 8d36 8f28 d237 1232 2c38
00000120: 5284 1238 d88b 2e36 2805 2f32 e9e8 4e35
00000130: 4d4c 2e36 b153 1e35 d0a8 dd12 b1e9 e207
00000140: ed64 9e07 0400 0000 0000 0000 0000 0000
00000150: 0000 0000 0000 0000 0000 0000 cb3b f42b
00000160: 30cc d42b 0ee1 c2a3 bbdf 62a3 850d b619
00000170: 26ff 8729 f026 c330 8474 24af a3e8 5d35
00000180: 5ba5 1837 d9bb d0b8 b056 07b9 e416 0b39
00000190: f7a5 b539 5e62 9d39 f946 0f38 5b4e 3838
000001a0: 45cc 8b38 e41b c238 1f81 5a34 e9fe 0534
000001b0: 432d 9433 814d 4cad f470 d10c 0000 0000
000001c0: 0000 0000 0000 0000 0400 0000 cb8b 3f2f
000001d0: 41ea 162f 01a7 1b32 d99c ae33 1d21 52b4
000001e0: 84e5 6d38 5b2a c838 5636 58b7 2b9c 8cb8
000001f0: 179b 17ba c56a 5cb9 faa4 4539 a9af b7ba
00000200: 0e32 6aba 0a88 fe39 4fb9 1738 24f7 8e37
00000210: 73df 2439 4f6c 1739 4142 9637 5005 bdb6
00000220: 745c fdb2 51d9 af30 9daf 050c 0000 0000
00000230: 0000 0000 0000 0000 4066 1831 2bb0 f62f
00000240: efcc e333 77eb 0036 dad0 1336 f2d5 f4b7
00000250: 1ef7 dcb7 0b3b 4437 937f 63b9 8efb 7239
00000260: a46a 9a39 86eb c138 aa05 6aba 33be bfba
00000270: 14d6 5cba 7f17 0bba 6055 a03a 833f 723a
00000280: 83e1 8d3a 44c4 103a 12c1 f537 f8d5 7fb7
00000290: 7351 05b5 b9b5 8d32 8868 bf05 010f 6506
000002a0: 0000 0000 0000 0000 5d57 c722 0400 0000
000002b0: e2b6 a234 2c59 8536 755a 9036 ad2a a0b8
000002c0: 301b 0ab9 559e 85b8 1bdd f9b9 01a5 a238
000002d0: 030a e638 56be 9239 e172 c0ba 3ad4 05bb
000002e0: 87f9 fdba 18d6 32b9 2e2d 083b f32b 983a
000002f0: 7668 b43a de3f 553a ccca af39 da41 c437
00000300: 94e5 c037 cec5 bbb3 97f9 2bb4 39a9 8eb5
00000310: 0000 0000 0000 0000 0400 0000 6f5a d015
00000320: 2055 fb34 2a56 e035 2da0 2bb7 9448 31b9
00000330: a458 b4b9 6e92 c7b9 e339 1438 246a 0bb7
00000340: 1c18 6a3a ee9e b4b7 5750 b3b9 6d2b 013a
00000350: 0e7d 083b 0f63 4e3b e0e7 813b 889b 413b
00000360: 0945 523b 8c06 5b3b 93da e23a 9ca9 8339
00000370: 66e6 5938 b02a 38af 97f9 2bb4 647a 16b6
00000380: 38c5 3bb4 0400 0000 0400 0080 54bc a516
00000390: efe4 d337 8821 e037 8db0 98b8 dfa5 b8b8
000003a0: fbef 4ab9 3dc7 8d3a 1149 f23a 363c 1a3b
000003b0: 31eb 433b 779b aa3a d2f2 203a fc86 a839
000003c0: 0191 823a dd78 333b 836f 513b 10a9 953a
000003d0: 9208 ea3a ea72 213b c7a2 ed3a 524f 4b3a
000003e0: 31c0 9137 7746 0636 0daa ea1a a2a3 9119
000003f0: 0000 0000 0400 0000 0400 0080 5adc b916

exp_avg_sq f4 [10, 784]
0.0 0.0 0.0 0.0 0.0 0.0 0.0 0.0
0.0 0.0 0.0 0.0 0.0 0.0 0.0 0.0
0.0 0.0 0.0 0.0 0.0 0.0 0.0 0.0
0.0 0.0 0.0 0.0 0.0 0.0 0.0 0.0
0.0 0.0 0.0 4.3894376e-12 1.2320049e-10 1.750353e-10 7.6795303e-10 2.9743076e-08
1.1586341e-07 1.9596987e-08 5.420696e-10 1.0605866e-09 2.070912e-09 4.3744444e-10 2.9532512e-11 7.911637e-12
2.0538493e-11 3.511759e-12 0.0 0.0 0.0 0.0 0.0 0.0
0.0 0.0 0.0 4.0502618e-10 4.6394336e-11 3.2718817e-11 9.1491295e-09 2.4918503e-08
8.1267855e-09 5.7454983e-09 2.3847928e-08 7.7202245e-08 1.94504e-07 1.336101e-07 1.17696814e-07 8.059502e-08
1.6230477e-07 6.717509e-08 2.0621053e-08 1.25417e-08 5.4367026e-09 2.7026803e-09 5.2830285e-10 3.7019554e-10
1.4826118e-11 4.0033555e-13 0.0 0.0 0.0 0.0 0.0 4.281344e-09
1.3977097e-09 2.0312318e-07 2.3103418e-07 2.466202e-07 2.1810564e-07 9.003012e-07 1.2604983e-06 2.356215e-06
3.636718e-06 3.917884e-06 3.414577e-06 3.8007354e-06 5.342414e-06 4.2491947e-06 3.281932e-06 3.1790942e-06
1.9630143e-06 1.3571114e-06 4.6023618e-07 1.1110501e-07 5.7621826e-08 3.9297593e-08 2.1453175e-09 0.0
0.0 0.0 2.6360386e-13 1.6131187e-09 2.3753575e-09 2.3393673e-07 3.6139426e-07 7.403571e-07
1.5675612e-06 4.1643034e-06 7.6054744e-06 9.701488e-06 1.256569e-05 1.7203765e-05 2.308177e-05 2.7756758e-05
2.8052107e-05 2.2505583e-05 1.7541814e-05 1.6004135e-05 1.1769564e-05 6.7266246e-06 3.961043e-06 1.9923336e-06
6.6190603e-07 8.575183e-08 6.615752e-09 0.0 0.0 0.0 5.9096554e-09 1.0558157e-08
3.376554e-08 4.841205e-07 1.2768422e-06 2.3299315e-06 5.213127e-06 1.0060921e-05 1.7165881e-05 2.5198444e-05
3.4662826e-05 4.8828908e-05 5.9264818e-05 6.14989e-05 6.015145e-05 5.895875e-05 5.073799e-05 3.641962e-05
2.6961545e-05 1.6763983e-05 9.359233e-06 4.456802e-06 1.7013133e-06 2.4081154e-07 3.5155292e-08 3.396556e-08
0.0 0.0 4.5484463e-10 4.1049533e-10 7.8463486e-08 1.142908e-06 2.8651327e-06 5.4708435e-06
1.0693236e-05 2.0262818e-05 3.447192e-05 4.4185683e-05 5.5157394e-05 6.748077e-05 7.454241e-05 8.087822e-05
8.200119e-05 7.8112695e-05 6.904948e-05 5.6013017e-05 4.2787244e-05 2.7660619e-05 1.5718617e-05 7.3458436e-06
2.0769e-06 7.8489387e-07 4.1057942e-07 2.069617e-07 0.0 0.0 5.22004e-09 1.929675e-08
1.5746723e-07 1.6746336e-06 4.307676e-06 9.748448e-06 1.8951914e-05 3.2312084e-05 4.527465e-05 5.6445686e-05
6.664652e-05 7.37357e-05 7.805705e-05 7.865957e-05 8.1649494e-05 8.223345e-05 7.835998e-05 6.590414e-05
5.4442567e-05 4.1148134e-05 2.467271e-05 1.1471542e-05 3.2549297e-06 1.1021824e-06 3.8330904e-07 1.1357974e-08
3.1524817e-08 6.136444e-11 4.2075343e-09 1.0286545e-07 6.018071e-07 2.2654447e-06 6.6121206e-06 1.6361797e-05
2.8681121e-05 4.1768828e-05 5.451223e-05 6.6408924e-05 7.050679e-05 7.398796e-05 7.3136245e-05 7.360987e-05
7.8897836e-05 8.0155005e-05 7.591901e-05 6.717103e-05 5.953553e-05 4.7676567e-05 3.224698e-05 1.5611045e-05
3.6379786e-06 1.2099849e-06 1.5851303e-07 1.5586958e-08 0.0 2.934763e-10 2.682219e-09 3.0614115e-07
00000000: 0000 0000 0000 0000 0000 0000 0000 0000
00000010: 0000 0000 0000 0000 0000 0000 0000 0000
00000020: 0000 0000 0000 0000 0000 0000 0000 0000
00000030: 0000 0000 0000 0000 0000 0000 0000 0000
00000040: 0000 0000 0000 0000 0000 0000 0000 0000
00000050: 0000 0000 0000 0000 0000 0000 0000 0000
00000060: 0000 0000 0000 0000 0000 0000 0000 0000
00000070: 0000 0000 0000 0000 0000 0000 0000 0000
00000080: 0000 0000 0000 0000 0000 0000 8a70 9a2c
00000090: db75 072f 0f74 402f e417 5330 b77d ff32
000000a0: 95d0 f833 3b56 a832 c200 1530 13c4 9130
000000b0: df4f 0e31 d57c f02f a7e2 012e d82e 0b2d
000000c0: 93a8 b42d 3a1e 772c 0000 0000 0000 0000
000000d0: 0000 0000 0000 0000 0000 0000 0000 0000
000000e0: 0000 0000 0000 0000 0000 0000 5eaa de2f
000000f0: 610b 4c2e 1de6 0f2e 4c2e 1d32 5e0c d632
00000100: fb9d 0b32 f069 c531 26da cc32 62ca a533
00000110: dad8 5034 7776 0f34 82c0 fc33 9513 ad33
00000120: ff45 2e34 e541 9033 2d22 b132 fb76 5732
00000130: becd ba31 0eba 3931 0238 1130 6484 cb2f
00000140: 7369 822d 6f5e e12a 0000 0000 0000 0000
00000150: 0000 0000 0000 0000 0000 0000 1a1b 9331
00000160: 8a19 c030 131a 5a34 3112 7834 3967 8434
00000170: 6c30 6a34 3aac 7135 642e a935 771f 1e36
00000180: 570e 7436 5e76 8336 fc25 6536 2310 7f36
00000190: fd42 b336 4e94 8e36 2a3f 5c36 6c58 5536
000001a0: 54bc 0336 fe25 b635 6116 f734 a098 ee33
000001b0: de7b 7733 29c8 2833 d36c 1331 0000 0000
000001c0: 0000 0000 0000 0000 5265 942a 92b4 dd30
000001d0: bb3b 2331 0a30 7b34 a605 c234 f4bc 4635
000001e0: fe64 d235 18bb 8b36 8732 ff36 93c3 2237
000001f0: 3ad1 5237 ce50 9037 b99f c137 2fd7 e837
00000200: 7151 eb37 5fca bc37 c226 9337 9e40 8637
00000210: e475 4537 44b5 e136 1ae9 8436 08b4 0536
00000220: d6ad 3135 9126 b833 c550 e331 0000 0000
00000230: 0000 0000 0000 0000 e10d cb31 4463 3532
00000240: 9b05 1133 82f4 0135 f75f ab35 eb5b 1c36
00000250: 6cec ae36 54cb 2837 73ff 8f37 3f61 d337
00000260: ed62 1138 a4cd 4c38 1d93 7838 f8f8 8038
00000270: 214b 7c38 7a4a 7738 80cf 5438 45c1 1838
00000280: 7a2b e237 61a0 8c37 9a05 1d37 a38b 9536
00000290: ae58 e435 e348 8134 a7fd 1633 87e1 1133
000002a0: 0000 0000 0000 0000 b10d fa2f 15ac e12f
000002b0: c27f a833 0566 9935 9b46 4036 3092 b736
000002c0: 1967 3337 12fa a937 f195 1038 0454 3938
000002d0: cd58 6738 7684 8d38 a753 9c38 2a9d a938
000002e0: 0ef8 ab38 6fd0 a338 a8ce 9038 85ef 6a38
000002f0: 7476 3338 ba08 e837 79db 8337 517c f636
00000300: df60 0b36 7fb1 5235 9b6d dc34 3339 5e34
00000310: 0000 0000 0000 0000 f55b b331 01c2 a532
00000320: 4314 2934 f9c3 e035 a88a 9036 448d 2337
00000330: edfa 9e37 d686 0738 49e5 3d38 18c0 6c38
00000340: 94c4 8b38 8da2 9a38 8fb2 a338 09f6 a438
00000350: 3d3b ab38 bf74 ac38 3255 a438 0436 8a38
00000360: 4359 6438 7996 2c38 3ef8 ce37 e675 4037
00000370: 446f 5a36 b3ee 9335 98c9 cd34 e620 4332
00000380: e765 0733 1cf1 862e dd91 9031 e1e6 dc33
00000390: de8b 2135 0b08 1836 afdd dd36 b140 8937
000003a0: 3d98 f037 f030 2f38 10a4 6438 0545 8b38
000003b0: 0bdd 9338 fc29 9b38 b960 9938 ff5e 9a38
000003c0: f475 a538 e418 a838 b536 9f38 2cde 8c38
000003d0: cab5 7938 53f8 4738 ee40 0738 77f4 8237
000003e0: ff23 7436 c466 a235 bb33 2a34 15e4 8532
000003f0: 0000 0000 1e57 a12f 1852 3831 b85b a434

exp_avg f4 [10]
0.0030816414 0.0033319038 6e-45 0.0039040572 6e-45 6e-45 0.003374581 6e-45
-0.0040670102 0.0078925975
00000000: 5df5 493b 125c 5a3b 0400 0000 36db 7f3b
00000010: 0400 0000 0400 0000 1328 5d3b 0400 0000
00000020: 8e44 85bb f44f 013c

exp_avg_sq f4 [10]
0.0001718296 0.00018429857 1.295882e-09 0.0004530103 3.5337855e-08 3.6336946e-08 0.00025488174 2.5794795e-09
0.00079565006 0.0007073299
00000000: 282d 3439 4540 4139 cb1a b230 0382 ed39
00000010: 62c6 1733 e510 1c33 a6a1 8539 af42 3131
00000020: 2c93 503a 1b6c 393a

l1.weight f4 [10, 784]
0.006973017 -0.0145333335 0.01661231 0.012689777 0.02588841 0.0015772767 0.001337383 -0.0269828
-0.014208717 -0.011104858 0.013695512 0.028912973 -0.0073212218 0.035018574 0.031815205 -0.020326296
0.01395034 -0.03221829 0.012032568 -0.021644777 0.015800435 -0.0049859453 0.004988052 0.028971884
0.011602759 -0.011239128 0.0056006983 -0.01117003 -0.0152931865 -0.002219744 -0.0018109977 0.004570633
-0.032988034 0.0093362965 -0.034510147 -0.0056663314 -0.031576596 -0.04944426 -0.052645054 -0.006861347
-0.0024841446 0.0011792007 -0.016662003 -0.049134735 -0.080654256 -0.018063286 -0.025578912 0.011159916
-0.0328501 -0.030244276 -0.02763403 -0.033358168 0.029234204 0.011179235 -0.0093478095 0.020075824
0.01604516 0.007247854 -0.03564039 0.008983253 0.022000814 -0.041758202 -0.078816935 -0.09945351
-0.11065552 -0.108024135 -0.14726505 -0.118801646 -0.19205512 -0.17354406 -0.26954237 -0.34958145
-0.29192275 -0.3119349 -0.31784022 -0.25555494 -0.22370914 -0.13644081 -0.11258246 -0.063691184
-0.06272844 -0.017166132 -0.018346101 0.032727215 -0.030181132 0.023404103 0.026843946 -0.012503952
-0.045110416 -0.055544678 -0.14704384 -0.12925865 -0.17054349 -0.2725584 -0.26545772 -0.23686162
-0.2352545 -0.15023506 -0.1520578 -0.18331115 -0.13424961 -0.17326178 -0.21699363 -0.17954123
-0.11843898 -0.21257956 -0.21283083 -0.12778465 -0.04524035 -0.03092218 -0.04638601 -0.0006531514
-0.014593951 0.010458041 -0.019432425 -0.04033078 -0.0989096 -0.14399932 -0.21611293 -0.18485752
-0.13997297 -0.13746053 -0.19678156 -0.17930265 -0.12021675 -0.06806047 -0.03387441 -0.028716771
-0.0589586 -0.04324819 -0.08530867 -0.048721805 -0.101030014 -0.07652528 -0.11394395 -0.20227864
-0.17050657 -0.18820159 -0.076416306 -0.015018605 -0.008764578 -0.029224435 -0.10321084 -0.05306767
-0.1805404 -0.30237412 -0.2055751 -0.16690327 -0.15883201 -0.17085625 -0.15621684 -0.0579144
-0.047690324 0.086933374 0.07208691 0.07705893 0.064829335 0.07203722 0.04527306 -0.03288609
-0.072002575 -0.08428724 -0.07195904 -0.20898983 -0.29965475 -0.3255863 -0.20845929 -0.05220153
-0.03202633 -0.02178443 -0.050619308 -0.088854685 -0.1198956 -0.16584721 -0.15377234 -0.14823279
-0.19556037 -0.19667247 -0.10911589 -0.06125049 0.0010748795 0.020865144 0.070789196 0.076640405
0.11705204 0.102962054 0.09834293 0.04403839 -0.0021457318 0.0254815 0.04820517 -0.122477606
-0.37334606 -0.45879507 -0.30420262 -0.11323833 0.013663985 0.010672983 -0.059066635 -0.103829935
-0.23108834 -0.13025084 -0.09383576 -0.14894573 -0.17157665 -0.10853866 -0.050519776 -0.043815143
-0.007916112 -0.010965325 0.050339762 0.062784694 0.18237256 0.19091564 0.19592102 0.09754102
0.058967777 0.0016999375 0.013124543 -0.13373485 -0.40024284 -0.42754963 -0.29504144 -0.12772818
0.039369766 0.021803297 -0.06602101 -0.13445182 -0.2546197 -0.16917843 -0.08372504 -0.13162655
-0.06556302 -0.066817045 -0.009575818 -0.05341869 -0.048550174 0.013176913 0.022808997 0.10882988
0.20631799 0.19623876 0.14928974 0.088034905 0.029670278 -0.028112704 -0.024071371 -0.008083146
-0.33538917 -0.50220567 -0.2879909 -0.057789132 0.0136246905 -0.031499743 -0.008244306 -0.1253238
00000000: e87d e43b 381d 6ebc 8a16 883c c8e8 4f3c
00000010: ee13 d43c a0bc ce3a 204b af3a 080b ddbc
00000020: aecb 68bc 26f1 35bc 2463 603c e6da ec3c
00000030: dce6 efbb a36f 0f3d a950 023d 5583 a6bc
00000040: f88f 643c 53f7 03bd 4024 453c 6350 b1bc
00000050: ea6f 813c 2461 a3bb d072 a33b 7256 ed3c
00000060: 8019 3e3c 5224 38bc 1086 b73b 8002 37bc
00000070: 4690 7abc 2079 11bb 005f edba 40c5 953b
00000080: 761e 07bd 44f7 183c 835a 0dbd a2ac b9bb
00000090: 7656 01bd 1086 4abd 57a2 57bd 26d5 e0bb
000000a0: 08cd 22bb 698f 9a3a c17e 88bc 8141 49bd
000000b0: 0f2e a5bd 75f9 93bc de8a d1bc 15d8 363c
000000c0: d48d 06bd d8c2 f7bc c360 e2bc 93a2 08bd
000000d0: 927c ef3c 1c29 373c 8e27 19bc 0e76 a43c
000000e0: 2471 833c 687f ed3b a8fb 11bd 7e2e 133c
000000f0: 0d3b b43c a60a 2bbd c66a a1bd 48ae cbbd
00000100: 5c9f e2bd c23b ddbd a6cc 16be 474e f3bd
00000110: 19aa 44be 89b5 31be 7501 8abe 57fc b2be
00000120: e676 95be eeb5 9fbe f4bb a2be 19d8 82be
00000130: 0214 65be 24b7 0bbe a291 e6bd 8670 82bd
00000140: c577 80bd fd9f 8cbc 904a 96bc f90c 063d
00000150: 6c3e f7bc f6b9 bf3c d6e7 db3c 60dd 4cbc
00000160: b3c5 38bd d182 63bd a992 16be 615c 04be
00000170: f4a2 2ebe c68c 8bbe 13ea 87be da8b 72be
00000180: 8ee6 70be 38d7 19be 0ab5 1bbe ebb5 3bbe
00000190: bb78 09be 896b 31be 9433 5ebe a8d9 37be
000001a0: 2390 f2bd 75ae 59be 53f0 59be fbd9 02be
000001b0: f24d 39bd 8350 fdbc 42ff 3dbd 4038 2bba
000001c0: 781b 6fbc 3458 2b3c c030 9fbc e331 25bd
000001d0: 1e91 cabd 8f74 13be b54c 5dbe 4a4b 3dbe
000001e0: 1355 0fbe 74c2 0cbe 1b81 49be 1d9b 37be
000001f0: 3334 f6bd 4a63 8bbd e5bf 0abd 6f3f ebbc
00000200: 937e 71bd 0425 31bd 50b6 aebd 8490 47bd
00000210: d3e8 cebd 49b9 9cbd 725b e9bd 2222 4fbe
00000220: 4699 2ebe ebb7 40be 2780 9cbd 9810 76bc
00000230: 4e99 0fbc 1568 efbc 3460 d3bd 7c5d 59bd
00000240: 95df 38be c8d0 9abe 4782 52be b1e8 2abe
00000250: dca4 22be f1f4 2ebe 4ff7 1fbe a637 6dbd
00000260: ee56 43bd 200a b23d 4da2 933d 13d1 9d3d
00000270: 3ec5 843d 4088 933d 3f70 393d 91b3 06bd
00000280: 1676 93bd ca9e acbd 435f 93bd 6e01 56be
00000290: 596c 99be 3fb3 a6be 5a76 55be 46d1 55bd
000002a0: 0a2e 03bd 4375 b2bc 3156 4fbd 72f9 b5bd
000002b0: d38b f5bd dad3 29be 7f76 1dbe 56ca 17be
000002c0: fa40 48be 8264 49be 2778 dfbd cbe1 7abd
000002d0: f9e2 8c3a 61ed aa3c edf9 903d a5f5 9c3d
000002e0: fbb8 ef3d c5dd d23d 0568 c93d 9961 343d
000002f0: 689f 0cbb 94be d03c c972 453d 8ad5 fabd
00000300: 3727 bfbe 30e7 eabe 72c0 9bbe 7fe9 e7bd
00000310: e8de 5f3c bcdd 2e3c dbef 71bd caa4 d4bd
00000320: 6ca2 6cbe 7a60 05be f72c c0bd 3b85 18be
00000330: cab1 2fbe 8449 debd d3ed 4ebd 8277 33bd
00000340: 95b2 01bc e8a7 33bc 1131 4e3d 4395 803d
00000350: dfbf 3a3e 647f 433e 859f 483e 96c3 c73d
00000360: 3288 713d 70d0 de3a 5308 573c caf1 08be
00000370: a1ec ccbe c9e7 dabe ac0f 97be 2dcb 02be
00000380: 3142 213d d49c b23c 0636 87bd bdad 09be
00000390: 835d 82be 1c3d 2dbe 0978 abbd 1cc9 06be
000003a0: e845 86bd 60d7 88bd e4e3 1cbc 8ecd 5abd
000003b0: 8cdc 46bd fbe3 573c efd9 ba3c 33e2 de3d
000003c0: 0645 533e d0f2 483e 69df 183e a54b b43d
000003d0: 150f f33c 9d4c e6bc 5331 c5bc 2c6f 04bc
000003e0: 21b8 abbe 8d90 00bf 8b73 93be 4cb4 6cbd
000003f0: 183a 5f3c e005 01bd 2013 07bc e254 00be

l1.bias f4 [10]
-0.06717577 0.33716118 0.02430993 -0.08727444 -0.011569148 0.023595296 0.04312292 -0.019475332
-0.49155962 -0.09852157
00000000: 7393 89bd 64a0 ac3e 9e25 c73c f1bc b2bd
00000010: 868c 3dbc ec4a c13c a9a1 303d bb8a 9fbc
00000020: b4ad fbbe adc5 c9bd
