Image Classifiers/CIFAR -10/cnn.pth (torch_old, 249602 bytes, 10 tensors)

conv1.weight f4 [6, 3, 5, 5]
0	0x3e315814	0.17318755
1	0xbe38fd5b	-0.18065397
2	0x3e9fb418	0.31192088
3	0xbe913b7b	-0.28365692
4	0x3cd6957d	0.026194328
5	0x3e8bc457	0.27298233
6	0xbee0c75c	-0.439021
7	0x3eb50962	0.3535872
8	0xbeb72f9b	-0.35778508
9	0x3d81ba5c	0.06334373
10	0x3e55ed25	0.20891245
11	0xbf0f33d7	-0.55938476
12	0x3ec206eb	0.37895903
13	0xbe94da11	-0.2907262
14	0xbca3ca95	-0.01999406
15	0xbd559919	-0.05214796
16	0xbeada195	-0.3391234
17	0x3f03b4e7	0.5144791
18	0xbda6cb99	-0.08144302
19	0x3dd4ee5a	0.103970245
20	0x3d0ea3bd	0.03482412
21	0xbd88c4f1	-0.066781886
22	0xbde5d711	-0.11222661
23	0xbe91d76c	-0.28484666
24	0xbe139fe7	-0.14416467
25	0xbcef3210	-0.029198676
26	0xbea140c9	-0.3149474
27	0x3e8065d2	0.25077683
28	0xbe9278c0	-0.2860775
29	0x3d5f83a8	0.054568917
30	0x3e4e9171	0.20172669
31	0xbecbc783	-0.39800653
32	0x3ec10fa9	0.3770726
33	0xbe6586b9	-0.22414674
34	0x3e7fd063	0.24981837
35	0x3e62f2df	0.2216296
36	0xbee0e6df	-0.4392614
37	0x3ece3e57	0.40281937
38	0xbe4feb67	-0.20304643
39	0x3e0b88d8	0.1362642
40	0xbcae552a	-0.021280844
41	0xbe8033a7	-0.25039408
42	0x3f1beda6	0.609095
43	0x3ba86457	0.0051389146
44	0x3d539558	0.051656097
45	0xbc1a9659	-0.00943526
46	0x3d208793	0.039191794
47	0x3d765dfe	0.06014823
48	0xbe335564	-0.17513043
49	0x3e40cb97	0.18827663
50	0xbd464fb6	-0.048415862
51	0xbe092849	-0.13394274
52	0x3e859d4a	0.26096565
53	0xbe204be8	-0.15653956
54	0xbd23e39e	-0.040011995
55	0x3d94ce49	0.07265908
56	0xbde0ded7	-0.10980003
57	0x3e4bf900	0.19919205
58	0xbe4c430c	-0.19947451
59	0x3e144e31	0.14482953
60	0x3e011150	0.1260426
61	0xbe917a91	-0.28413823
62	0x3e504df8	0.20342243
63	0xbe444f2c	-0.19170827
64	0xbd2f0525	-0.042729516
65	0x3d00d72e	0.03145521
66	0xbc5f166d	-0.013616187
67	0x3ee543e9	0.44778374
68	0xbd8638c5	-0.06553797
69	0x3cd9ffaa	0.026611168
70	0x3d15ce9b	0.036573987
71	0xbdf453b1	-0.11930025
72	0x3ca412f2	0.020028565
73	0xbe1247a6	-0.14285144
74	0xbdc27d7d	-0.09496591
75	0x3c815bc7	0.015790833
76	0x3e5be22c	0.21472996
77	0x3d5dc113	0.054139208
78	0x3e0372ef	0.12836812
79	0x3e303212	0.172066
80	0xbd9fb212	-0.07797636
81	0xbdcb6355	-0.099310555
82	0x3cd670b1	0.026176782
83	0xbdfc852c	-0.12330088
84	0x3d8d4fea	0.06900008
85	0xbd6b0722	-0.05737985
86	0xbe2b6407	-0.16737376
87	0xbddaeb7f	-0.106894486
88	0xbd92b097	-0.07162588
89	0x3cefea46	0.029286515
90	0xbdd5581b	-0.104171954
91	0xbe43619b	-0.19080202
92	0xbeaace2e	-0.33360428
93	0xbe930f4e	-0.28722614
94	0xbe4a94cd	-0.19783325
95	0x3dc86b5e	0.09786104
96	0xbdcc4bdf	-0.09975409
97	0x3bc8d724	0.0061291624
98	0xbddd5600	-0.10807419
99	0xbd896a93	-0.067097805
100	0xbdb55e6c	-0.088559
101	0xbdd4af7b	-0.10385033
102	0x3cb73c07	0.02236749
103	0xbd48e748	-0.049048692
104	0xbddc7f73	-0.107664965
105	0xbe1b8de7	-0.1519085
106	0xbdf3aa2a	-0.118976906
107	0x3c65e73e	0.014032183
108	0xbdcf6eaa	-0.10128529
109	0x3db9136c	0.090369076
110	0xbe7fa2ce	-0.24964449
111	0xbdcf2c45	-0.101158656
112	0x3b574d3c	0.0032852432
113	0xbdb68a79	-0.0891313
114	0xbe042972	-0.12906435
115	0xbe0c5a0b	-0.13706224
116	0xbe0f4cc5	-0.13994129
117	0xbd986e8c	-0.0744296
118	0xbe362afa	-0.17789832
119	0xbdfa5308	-0.12222868
120	0x3d810f13	0.06301703
121	0x3d613c4d	0.054989148
122	0x3b33400a	0.0027351403
123	0x3e1cbf71	0.15307404
124	0x3d083cd2	0.033261128
125	0xbdb62e15	-0.08895508
126	0xbcda715f	-0.026665388
127	0xbd595589	-0.05306009
128	0xbdb690ad	-0.089143135
129	0xbcd3b178	-0.02584146
130	0xbe0a81f6	-0.13526139
131	0x3da7121b	0.0815775
132	0x3e4f4c1a	0.20243874
133	0x3df19fb7	0.11798041
134	0x3d13aabe	0.036051504
135	0xbd9d95aa	-0.07694562
136	0xbc39b2a0	-0.011334091
137	0x3df76c21	0.12081171
138	0x3dca396d	0.09874234
139	0x3be17da6	0.0068814335
140	0x3de0ae7f	0.109707825
141	0x3d083f91	0.033263747
142	0x3dc3f53e	0.095682606
143	0x3d88f885	0.06688026
144	0xbd5c2542	-0.05374647
145	0x3e1c5372	0.15266207
146	0x3e48b17f	0.1959896
147	0x3eafaf0a	0.34313232
148	0x3e11c2f5	0.14234526
149	0x3e4902ca	0.1962997
150	0xbe0bf704	-0.13668448
151	0x3db782cd	0.08960495
152	0x3de5cbf3	0.11220541
153	0xbd80accb	-0.06282958
154	0xbde2da4a	-0.110767916
155	0xbd80a210	-0.06280911
156	0xbeebe80b	-0.46075472
157	0xbf06bcc2	-0.5263177
158	0xbe2c595b	-0.16830961
159	0x3d143d44	0.03619124
160	0xbd488f14	-0.048964575
161	0xbc5b320a	-0.013378629
162	0xbd75de63	-0.060026538
163	0xbdfee0da	-0.12445231
164	0x3c0f75b0	0.008756086
165	0xbdc05d1d	-0.0939276
166	0x3ec054f3	0.3756481
167	0x3ed9f741	0.42571452
168	0x3e5cb567	0.21553575
169	0xbe61fdb2	-0.22069433
170	0x3d2fcdc0	0.042920828
171	0x3d6cf55f	0.05785119
172	0x3d4bcb90	0.04975468
173	0x3e65f444	0.22456461
174	0x3ddc3d88	0.10753924
175	0xbdc9097d	-0.09816263
176	0x3db6252e	0.0889381
177	0x3e19ff65	0.15038832
178	0x3dd2dbf2	0.102958575
179	0xbcac4f4d	-0.021033907
180	0x3e60b256	0.2194303
181	0xbe9b906c	-0.30383623
182	0xbec1c661	-0.37846664
183	0x3ccaa0c7	0.024734868
184	0x3e164716	0.14675555
185	0xbd9ff60b	-0.07810601
186	0x3cc7bce0	0.024382055
187	0x3d7a3cc2	0.0610931
188	0x3ce09a48	0.027417317
189	0xbc2b9635	-0.010472824
190	0xbd823c79	-0.063591905
191	0x3ea88195	0.32911363
192	0x3edf03ce	0.4355759
193	0x3cd46b77	0.02593015
194	0xbe4a38ad	-0.19748183
195	0x3cbe0b18	0.02319865
196	0xbda3823a	-0.07983823
197	0xbd137b34	-0.036006168
198	0xbccd2b02	-0.025044922
199	0x3d055538	0.032551974
200	0xbce791f7	-0.028267844
201	0x3da1d36d	0.079016544
202	0x3ce0cfd3	0.027442848
203	0x3d40da2c	0.047083065
204	0x3c56afca	0.013103435
205	0x3e8304a1	0.2558947
206	0xbee779f3	-0.45210227
207	0xbe90faa0	-0.28316212
208	0xbdf4a87c	-0.11946198
209	0x3e79e0ff	0.24402235
210	0xbd217193	-0.039414953
211	0xbd48f173	-0.04905839
212	0xbd239c96	-0.039944254
213	0xbda04923	-0.0782645
214	0x3d9a6afd	0.07539938
215	0xbda82177	-0.08209508
216	0x3e8fee35	0.28111425
217	0x3e429ea2	0.19005826
218	0x3d9233c5	0.071387805
219	0xbe3cc2b8	-0.18433654
220	0x3d59f757	0.053214397
221	0x3b0c9db8	0.0021456312
222	0xbdcc81f4	-0.09985724
223	0x3d94540f	0.072425954
224	0xbced36d0	-0.0289568
225	0x3d8ad161	0.06778217
226	0xbdc6e425	-0.09711484
227	0xbd01b102	-0.03166295
228	0x3e1bd8b8	0.1521939
229	0x3e053b1b	0.13010828
230	0xbdd7122d	-0.10501514
231	0xbe35ff61	-0.177732
232	0xbe5997be	-0.21249291
233	0xbd7c62e6	-0.061617754
234	0x3be0e999	0.0068637845
235	0xbe7a59e6	-0.24448356
236	0xbe9f6413	-0.31131038
237	0xbe98fe76	-0.29881638
238	0xbdbbfae3	-0.09178712
239	0xbe05dc0f	-0.13072227
240	0xbd4ce3de	-0.050022
241	0xbe90c4fc	-0.28275287
242	0xbded50fb	-0.115877114
243	0xbd0189ed	-0.031625677
244	0xbdb87df5	-0.090083994
245	0x3da20cef	0.07912623
246	0xbd133229	-0.03593651
247	0xb9c9b2a5	-0.00038470808
248	0x3c9605be	0.018313285
249	0x3e2f5f81	0.17126276
250	0xbda3ed1b	-0.08004209
251	0xbca46e26	-0.020072054
252	0x3da058d0	0.0782944
253	0x3d69b96d	0.0570616
254	0xbde468d8	-0.1115281
255	0x3d9920b9	0.074769445

conv1.bias f4 [6]
0	0xbe178bff	-0.14799498
1	0xbebd8da5	-0.3702213
2	0xbe84afb7	-0.2591531
3	0x3e3906c3	0.18068986
4	0xbe85bf8d	-0.26122704
5	0xbecdd3fb	-0.4020079

conv2.weight f4 [16, 6, 5, 5]
0	0x3e086fb9	0.13323869
1	0xbd6aa45f	-0.057285663
2	0xbe34d67d	-0.17659946
3	0xbe6cb144	-0.23114496
4	0x3da43e04	0.08019641
5	0xbe22b490	-0.15889192
6	0xbe647b9e	-0.22312781
7	0xbc7b6e58	-0.015346132
8	0xbe43787a	-0.19088927
9	0xbd8b8dcd	-0.06814156
10	0xbe02fe34	-0.12792283
11	0x3ddf3baf	0.109000556
12	0x3dbd9d07	0.09258466
13	0xbd82c0f2	-0.06384458
14	0xbdacddf2	-0.0844077
15	0xbdca8162	-0.09887959
16	0x3edf84db	0.43656048
17	0xbd51599a	-0.05111084
18	0x3d628227	0.055299904
19	0xbbf86281	-0.007580102
20	0x3d43d769	0.047812853
21	0x3e286015	0.16442902
22	0x3e434d90	0.19072556
23	0x3d029e67	0.031889345
24	0xbd97c4c1	-0.07410575
25	0x3dd648f5	0.10463134
26	0xbc8751f2	-0.016518567
27	0x3e003c51	0.12523009
28	0x3e7ad316	0.24494585
29	0x3d210d09	0.039319072
30	0x3d84033a	0.06445928
31	0x3e114c98	0.14189374
32	0x3e80fbeb	0.25192198
33	0x3e54c04d	0.20776482
34	0xbdf34874	-0.11879054
35	0xbddaa708	-0.1067639
36	0x3e2a5ad5	0.16636212
37	0x3ea5fbc5	0.32418647
38	0xbcab0abf	-0.020879148
39	0xbdb90cee	-0.09035669
40	0xbcf8f4a8	-0.030390099
41	0x3d963692	0.07334627
42	0x3e0d4c5e	0.13798663
43	0x3e3dc828	0.18533385
44	0xbdf7ed38	-0.12105793
45	0xbd97ebd9	-0.07418031
46	0x3e246965	0.1605583
47	0xbe33d270	-0.17560744
48	0x3e0f5c9a	0.14000168
49	0xbddad318	-0.10684794
50	0x3de0a672	0.10969247
51	0x3d73f187	0.05955651
52	0xbe16dfd1	-0.14733817
53	0xbd2dc728	-0.04242626
54	0x3d87bec6	0.06628184
55	0x3db5508b	0.08853253
56	0xbe6be957	-0.23038231
57	0x3c741858	0.014898382
58	0x3bf4081d	0.0074472562
59	0x3d96ec66	0.07369308
60	0xbe5edc6c	-0.21763772
61	0x3dee18de	0.11625837
62	0x3dbd052c	0.09229502
63	0xbe64204a	-0.22277942
64	0x3c84807c	0.016174547
65	0xbcbc7e9c	-0.02300959
66	0xbc170e8c	-0.009219777
67	0x3c4b0d33	0.012393284
68	0xbe13c7d1	-0.14431693
69	0xbe321bb7	-0.17393385
70	0x3cf6e15d	0.030136758
71	0xbdd7aec9	-0.105313845
72	0xbde90dee	-0.1137961
73	0x3d98b6f9	0.07456774
74	0xbdc38ca8	-0.095483124
75	0xbe12cd3f	-0.14336108
76	0x3de22f37	0.11044162
77	0x3ce61e7c	0.028090708
78	0xbdaad7b6	-0.08341925
79	0xbee1ef80	-0.44128036
80	0xbd60204b	-0.054718297
81	0xbe852e4e	-0.2601189
82	0xbea8375d	-0.3285474
83	0xbed743f9	-0.42044047
84	0xbf1a2baf	-0.60222906
85	0xbe0325f5	-0.12807448
86	0xbebe7d44	-0.37204945
87	0xbefa2fee	-0.48864692
88	0xbf578196	-0.8418211
89	0xbf10c1af	-0.5654554
90	0xbe1d358c	-0.15352458
91	0x3d79a572	0.060948797
92	0xbe8ff02b	-0.2811292
93	0xbf189db4	-0.59615636
94	0xbee03aba	-0.43794805
95	0xbea502bb	-0.32228646
96	0xbd80482a	-0.06263764
97	0xbe3576ca	-0.17721096
98	0xbf14815b	-0.5800988
99	0xbf1b81db	-0.6074502
100	0x3e8c8ffe	0.27453607
101	0x3d758bae	0.059947662
102	0xbec56fdd	-0.38561907
103	0xbac3502c	-0.0014901212
104	0x3e051e73	0.12999897
105	0x3e76479f	0.24050759
106	0xbee0abe5	-0.43881145
107	0x3e4d7dff	0.20067595
108	0x3cdc2aac	0.026875816
109	0x3e9ade75	0.30247846
110	0xbcfa62bb	-0.030564656
111	0xbe8c7703	-0.2743455
112	0x3e2b5302	0.16730884
113	0x3d1f39ea	0.03887359
114	0x3d09427e	0.033510678
115	0xbd9a2354	-0.075262696
116	0x3e207895	0.15670998
117	0xbe892252	-0.26783997
118	0xbd42e4b8	-0.047581404
119	0x3dabfb1f	0.08397507
120	0x3c75cf5e	0.0150030535
121	0x3e8e4c22	0.2779246
122	0x3d0c9475	0.034321267
123	0x3dcc9b68	0.09990579
124	0x3c9c8ceb	0.019110164
125	0x3e552902	0.20816424
126	0x3e7132d4	0.23554546
127	0x3dab6eb7	0.083707266
128	0xbbc01ca5	-0.0058627897
129	0xbcbe2c0b	-0.02321436
130	0x3e96aefe	0.29430383
131	0x3e25ef10	0.16204476
132	0xbce14cd1	-0.02750245
133	0xbe478eda	-0.19488087
134	0x3d2c64ec	0.042088434
135	0x3da25045	0.079254664
136	0xbe811476	-0.25210923
137	0xbdba87d3	-0.09107938
138	0x3dad6591	0.08466638
139	0xbccfb076	-0.025352698
140	0x3e814878	0.25250602
141	0xbe3a1a07	-0.18173991
142	0xbe1bc0a8	-0.15210211
143	0xbc884e3a	-0.016638864
144	0x3e0cf7bc	0.13766378
145	0x3cc1fa3c	0.023678891
146	0xbd3eede4	-0.04661359
147	0xbe29a1f6	-0.1656569
148	0xbe1bb255	-0.15204747
149	0xbe283c44	-0.1642924
150	0x3a31a297	0.0006776242
151	0x3bb059f4	0.005381817
152	0x3e26b484	0.16279799
153	0xbc65d512	-0.014027851
154	0xbd9a3f52	-0.07531609
155	0x3e160ccd	0.1465332
156	0x3daadb05	0.08342556
157	0x3ea478cd	0.32123414
158	0xbb36dcc7	-0.002790259
159	0xbd63dbc3	-0.055629503
160	0x3d21e1dc	0.039522037
161	0x3dc0d47a	0.09415527
162	0x3e6efb25	0.23337992
163	0x3dbc7bbd	0.09203289
164	0xbd0aafd0	-0.033859074
165	0xbe37d698	-0.17952955
166	0x3d7e8d02	0.062146194
167	0x3de89daf	0.11358201
168	0x3da9257f	0.08259105
169	0x3d00a6b6	0.031408988
170	0xbe13a858	-0.14419687
171	0x3e1aafa8	0.1510607
172	0x3e8ad639	0.27116564
173	0x3d8395eb	0.06425079
174	0xbdd2cb39	-0.10292668
175	0x3e362cf0	0.1779058
176	0x3d3c036c	0.0459017
177	0xbd2252dd	-0.039629806
178	0x3d8c626c	0.0685471
179	0xbebb03c5	-0.36526313
180	0x3deb580f	0.11491405
181	0xbdeb7687	-0.11497217
182	0xbcecb0cd	-0.028892899
183	0x3d1b349c	0.03789197
184	0xbe8c9d65	-0.27463832
185	0x3da29162	0.07937886
186	0xbba27cf9	-0.0049587456
187	0xbdec4290	-0.11536133
188	0x3dbbf605	0.09177784
189	0xbe793d74	-0.24339849
190	0xbd926515	-0.07148186
191	0x3e870ad6	0.26375455
192	0x3ba3d957	0.005000274
193	0x3dd9a311	0.106268056
194	0xbbebc916	-0.007195602
195	0xbdad23cb	-0.084540926
196	0x3b45a5a0	0.0030158535
197	0xbd184f80	-0.037185192
198	0xbd93c72c	-0.072157234
199	0xbe400c08	-0.1875459
200	0xbd175a19	-0.03695116
201	0xbdf9f4b7	-0.12204879
202	0xbdc01519	-0.09379024
203	0xbb799354	-0.00380822
204	0xbe20566a	-0.15657964
205	0xbb27fd3b	-0.0025633115
206	0xbc28fea4	-0.010314617
207	0xbe2af310	-0.16694283
208	0xbe5cec92	-0.2157462
209	0xbe25f099	-0.16205062
210	0x3de134d3	0.109964035
211	0xbd3a2e7f	-0.0454545
212	0xbe5239d9	-0.2052988
213	0xbe3d31c3	-0.18476014
214	0xbe5c88c9	-0.21536554
215	0xbd8cd336	-0.06876223
216	0xbea60afd	-0.32430258
217	0xbe8ae47f	-0.27127454
218	0xbe31668a	-0.17324272
219	0xbe879889	-0.26483563
220	0x3d7b0ac6	0.06128957
221	0xbe6dd64a	-0.23226276
222	0xbe7e8b8e	-0.24857923
223	0xbe45bff0	-0.193115
224	0xbe88acb4	-0.26694262
225	0x3d92771f	0.07151627
226	0xbd740688	-0.05957654
227	0xbd4318ed	-0.047631193
228	0xbe1e66bc	-0.15468878
229	0xbe0b0b28	-0.13578475
230	0x3de1aa07	0.11018758
231	0x3dbdb6d6	0.09263389
232	0xbdf5eaad	-0.120076515
233	0x3c8f852a	0.017519552
234	0xbd68d1ca	-0.056840695
235	0xbc1c3012	-0.009532945
236	0xbd35099f	-0.04419863
237	0xbe0e79c7	-0.13913642
238	0x3daa921b	0.08328649
239	0xbda12bb3	-0.07869663
240	0x3b6d261e	0.003618605
241	0x3e072c16	0.13200411
242	0xbdad704d	-0.08468685
243	0x3dfad194	0.12247005
244	0xbd76d9a4	-0.060266152
245	0xbd40e3cf	-0.047092255
246	0x3e2ff90d	0.17184849
247	0xbb2f9a68	-0.0026794914
248	0x3e1b0d33	0.15141754
249	0xbc07628c	-0.0082632415
250	0xbe0c6193	-0.13709097
251	0x3e0c947a	0.13728514
252	0xbb228f98	-0.0024804827
253	0x3e7d42c8	0.24732506
254	0x3d8d2fda	0.068938926
255	0xbcfadda5	-0.030623266

conv2.bias f4 [16]
0	0x3e896b75	0.26839796
1	0x3f38ef96	0.7224058
2	0x3f14ab14	0.58073545
3	0xbed1e941	-0.4099827
4	0x3e0085b4	0.12551004
5	0x3eb4cc2d	0.35312024
6	0x3f5b67b1	0.85705096
7	0xbf30c52d	-0.69050866
8	0xbd36b851	-0.04460937
9	0xbec71c1d	-0.38888636
10	0xbdffef16	-0.12496774
11	0x3ed2a444	0.4114095
12	0x3e76697f	0.24063681
13	0x3db0b1ee	0.086276874
14	0xbe985e3f	-0.29759404
15	0x3e3d3d21	0.1848035

fc1.weight f4 [120, 400]
0	0x3b4c8d80	0.003121227
1	0xbe4f082f	-0.20217966
2	0xbe3ed8f6	-0.18637452
3	0xbc206bcb	-0.009791325
4	0x3cf62d29	0.03005083
5	0xbda44135	-0.0802025
6	0x3d473f0b	0.048644107
7	0x3d12b92a	0.035821117
8	0x3dd3eaca	0.10347517
9	0x3defb611	0.11704648
10	0xbec12ace	-0.3772797
11	0xbee79b6e	-0.4523577
12	0xbf11a182	-0.56887066
13	0xbf1d922a	-0.61551154
14	0xbf2a2298	-0.66459036
15	0xbf35a000	-0.70947266
16	0xbddb66ea	-0.10712989
17	0xbf09627b	-0.53665894
18	0xbf66e5e2	-0.90194523
19	0xbf60b308	-0.8777318
20	0xbddded3e	-0.10836266
21	0x3d6cf3d3	0.057849716
22	0xbe43c3d2	-0.19117668
23	0xbef4e16f	-0.47828242
24	0xbf5de087	-0.86670727
25	0x3e8fee0f	0.28111312
26	0x3e929418	0.28628612
27	0x3db6cb04	0.08925441
28	0x3d820908	0.06349379
29	0x3d9f1310	0.07767308
30	0xbe86d678	-0.26335502
31	0xbda88b48	-0.08229691
32	0xbe178d66	-0.14800033
33	0xbe992adb	-0.2991551
34	0xbe048859	-0.12942638
35	0xbe46fa3f	-0.19431399
36	0xbea439cb	-0.32075343
37	0xbe89fdbd	-0.269514
38	0xbeda8af2	-0.42684132
39	0xbea2a57c	-0.3176688
40	0xbec644bc	-0.38724315
41	0xbea15c90	-0.31515932
42	0xbdc7736d	-0.097388126
43	0xbd5332ab	-0.051561993
44	0x3c277723	0.0102212755
45	0xbebf1324	-0.3731929
46	0xbea353ea	-0.3189996
47	0xbe6590fb	-0.22418587
48	0xbe3cce2d	-0.18438025
49	0x3d9af84f	0.07566892
50	0x3e6a61cc	0.22888869
51	0x3de3cc05	0.11122898
52	0xbd94ca39	-0.072651334
53	0x3df47066	0.11935501
54	0x3ebefe0d	0.373032
55	0x3e9f2563	0.3108321
56	0xbde58ec1	-0.11208869
57	0xbea19231	-0.31556848
58	0xbe9ff368	-0.31240392
59	0xbe0ffe22	-0.14061788
60	0x3e960920	0.29303837
61	0xbe8277b3	-0.25481948
62	0xbeec6316	-0.46169347
63	0xbe33f162	-0.17572549
64	0x3dbe011f	0.092775576
65	0xbe90f98b	-0.28315386
66	0xbf12bbd0	-0.5731783
67	0xbe561fc7	-0.2091056
68	0x3c32af60	0.0109060705
69	0xbd8cb78a	-0.06870945
70	0xbe4d4176	-0.20044503
71	0xbe914e30	-0.28379965
72	0xbe4ba210	-0.1988604
73	0xbe286a78	-0.16446865
74	0xbe5b9043	-0.2144175
75	0xbe979cf5	-0.29611936
76	0x3e034e09	0.12822737
77	0x3d1c7046	0.03819301
78	0xbe8123e0	-0.25222683
79	0xbda34b80	-0.07973385
80	0x3d53bd33	0.051694106
81	0x3e85cca5	0.26132694
82	0xbe8b3659	-0.271899
83	0xbe5ec377	-0.21754251
84	0xbd0f9710	-0.035056174
85	0xbe5463e5	-0.20741232
86	0x3d8beb9a	0.06832047
87	0xbe0a814a	-0.13525882
88	0xbec23b93	-0.37936077
89	0xbe311d29	-0.1729628
90	0xbeacd323	-0.33754835
91	0xbe60fd90	-0.21971726
92	0xbf47a038	-0.7797885
93	0xbf60f7a8	-0.87877893
94	0xbe2c3214	-0.16815978
95	0xbbed890c	-0.0072490033
96	0xbf33633a	-0.7007328
97	0xbf431ef3	-0.762191
98	0xbf0f7dd2	-0.5605136
99	0x3e3c77c8	0.18405068
100	0xbe2ef7e7	-0.17086755
101	0xbe2f76c2	-0.17135146
102	0xbcfd81af	-0.030945627
103	0x3e81606d	0.2526888
104	0xbd98e2f3	-0.07465162
105	0xbe86bd83	-0.2631646
106	0xbe9c409d	-0.30518046
107	0x3c878744	0.016543992
108	0xbd86bfe7	-0.06579571
109	0xbde5faa6	-0.11229448
110	0xbe882130	-0.2658782
111	0xbe87710a	-0.2645343
112	0xbeb5cb18	-0.3550651
113	0xbe8f398e	-0.27973598
114	0xbdce37f6	-0.100692675
115	0x3d3758f1	0.044762556
116	0xbe9e1dac	-0.30882013
117	0xbeb21905	-0.34784713
118	0xbf0f5409	-0.559876
119	0x3d3681ea	0.04455749
120	0x3e838a3d	0.25691405
121	0xbe47900a	-0.1948854
122	0xbec1d623	-0.37858686
123	0xba5e27e8	-0.00084745744
124	0x3cb92b22	0.022603575
125	0xbed6bad0	-0.41939402
126	0xbe4f0ed6	-0.20220503
127	0xbe6b2351	-0.22962691
128	0xbdcbf5fc	-0.09959027
129	0xbf05ce52	-0.52267945
130	0xbc59946b	-0.0132800145
131	0x3e540838	0.2070626
132	0xbd71e7b5	-0.059058864
133	0xbd030c99	-0.031994436
134	0xbd320bf8	-0.043468446
135	0xbe25cef2	-0.16192225
136	0x3d2d3908	0.042290717
137	0xbe312fa4	-0.1730333
138	0x3d166453	0.03671677
139	0x3dcfeb8f	0.10152351
140	0xbb964c74	-0.0045867506
141	0xbec06dd2	-0.37583786
142	0xbdb597b8	-0.08866829
143	0xbe11be5b	-0.14232771
144	0x3e4f2c75	0.20231803
145	0xbe633ad9	-0.22190417
146	0xbec0cb4f	-0.37655112
147	0xbf09d291	-0.53836924
148	0xbebc412a	-0.36768466
149	0xbb6e66ec	-0.0036377264
150	0xbe84a379	-0.2590597
151	0xbe8c3908	-0.2738726
152	0xbe741cb8	-0.2383908
153	0xbdd62d75	-0.10457889
154	0x3eecb3a8	0.46230817
155	0xbe28f6a7	-0.1650034
156	0xbdf60a7a	-0.12013717
157	0xbd1b942c	-0.037983105
158	0xbd9ad029	-0.07559235
159	0x3e8dc0c3	0.27686128
160	0xbe33b212	-0.17548397
161	0xbe8b5780	-0.27215195
162	0x3e347e9e	0.17626426
163	0x3e937805	0.28802505
164	0x3e89ba2e	0.26899856
165	0xbcbbe2f9	-0.022935377
166	0x3e0162f5	0.12635405
167	0x3dbca7ad	0.09211669
168	0xbc9a1c5e	-0.018812355
169	0xbe84ea03	-0.25959787
170	0x3dad06c1	0.08448554
171	0x3dcc17a5	0.09965447
172	0x3da6d07a	0.081452325
173	0x3d3eb1c9	0.046556268
174	0x3cd0f70f	0.025508432
175	0x3e2f9a55	0.17148717
176	0x3ebd11f7	0.3692777
177	0x3dd03776	0.10166828
178	0x3ecd18ba	0.40057927
179	0x3d86c004	0.06579593
180	0x3de089bf	0.10963773
181	0xbbb50bd6	-0.0055250926
182	0xbd8dd402	-0.06925203
183	0x3da582c9	0.08081586
184	0xbe1c64df	-0.15272854
185	0x3e94c1f3	0.29054222
186	0xbdae92e3	-0.0852411
187	0xbe6d4d1a	-0.23173943
188	0xbeae7fa6	-0.34081763
189	0x3e65476d	0.22390528
190	0xbc689207	-0.014194972
191	0xbec50515	-0.3848044
192	0xbf218622	-0.63095295
193	0xbf2d2b72	-0.6764442
194	0xbe8c84b0	-0.27444983
195	0xbc29d750	-0.010366276
196	0xbe7498f9	-0.2388648
197	0xbeb3e5cb	-0.35136256
198	0xbe01a937	-0.12662207
199	0xbdd088d5	-0.10182349
200	0xbd9b2c8d	-0.07576857
201	0xbcda70b1	-0.026665064
202	0x3b8ffbc3	0.004394026
203	0x3e4d1434	0.20027238
204	0x3e8a6c2b	0.2703565
205	0xbec78f96	-0.38976735
206	0xbe17c6f1	-0.14821984
207	0xbd029467	-0.03187981
208	0xbe1ffe20	-0.15624285
209	0x3e4ac876	0.19803032
210	0x3d80b214	0.06283966
211	0xbdb5c5b1	-0.08875597
212	0x3ddaa0b7	0.10675185
213	0xbc6ffdc0	-0.014647901
214	0x3d68a690	0.05679947
215	0x3eabb8eb	0.3353952
216	0xbcd49cce	-0.025953677
217	0xbf03d59b	-0.5149781
218	0xbeec7cd1	-0.46188977
219	0xbf06b853	-0.52625006
220	0x3dbf630c	0.093450636
221	0x3eca97d7	0.3956897
222	0x3e1f8ac6	0.15580282
223	0xbde9aa0c	-0.11409387
224	0xbed3bc4d	-0.413546
225	0x3e5cf788	0.215788
226	0x3c6526e6	0.013986325
227	0xbde80a00	-0.11330032
228	0x3d73cb8b	0.059520286
229	0x3e94af31	0.2903991
230	0x3e7035e4	0.23458058
231	0xbdad1fc5	-0.08453325
232	0xbe231e63	-0.1592956
233	0xbd1b1870	-0.037865102
234	0x3d9fa562	0.07795216
235	0x3e1fd05e	0.1560683
236	0x3bd49d42	0.006488473
237	0xbd34a14b	-0.044099133
238	0xbe087291	-0.13324954
239	0xbe06e79a	-0.13174286
240	0x3cec3fd4	0.02883903
241	0xbda69179	-0.081332155
242	0x3d47a289	0.04873899
243	0x3dc92a7f	0.098225586
244	0x3e6e6d88	0.2328397
245	0x3d5a046b	0.05322687
246	0x3d687b83	0.056758415
247	0x3e88b4b1	0.26700357
248	0x3e803e6c	0.25047624
249	0xbdac05a0	-0.083995104
250	0xbcf6fddb	-0.030150345
251	0xbe0c4b64	-0.13700634
252	0xbe00f37d	-0.12592883
253	0x3dda85dc	0.10670063
254	0x3e7515bd	0.23934074
255	0x3ea2afb5	0.3177468

fc1.bias f4 [120]
0	0x3f18f879	0.5975414
1	0x3e86828f	0.26271483
2	0x3ebd2bd2	0.36947495
3	0x3ceb11a0	0.028694928
4	0xbdb79d1c	-0.08965513
5	0xbddc0453	-0.10743012
6	0xbd0a0b5c	-0.03370224
7	0x3d0ce063	0.03439368
8	0xbdede894	-0.116166264
9	0xbdaede2f	-0.08538472
10	0xbce63668	-0.028102115
11	0xbdd08b6a	-0.10182841
12	0xbc2d4aba	-0.010576898
13	0xbc902491	-0.017595561
14	0x3c7061b8	0.014671735
15	0xbe687dec	-0.22704285
16	0x3d24d280	0.04023981
17	0xbe4ffc57	-0.20311104
18	0xbe71e648	-0.23623002
19	0x3e965a4c	0.29365766
20	0xbeea6405	-0.45779434
21	0x3f020eb4	0.50803685
22	0x3e1dc694	0.15407783
23	0xbb6d3870	-0.003619697
24	0xbd2f8934	-0.042855456
25	0x3e2965ef	0.16542791
26	0x3d416658	0.047216743
27	0xbd7687be	-0.060188048
28	0xbcb0f75d	-0.021602327
29	0xbd36085a	-0.04444156
30	0xbd6f5486	-0.058430217
31	0xbdb84866	-0.08998184
32	0xbd1c63c1	-0.03818107
33	0xbd2d69cb	-0.04233722
34	0xbe501f33	-0.20324402
35	0xbd789fbc	-0.06069921
36	0x3dc0880c	0.09400949
37	0xbec602f1	-0.3867412
38	0xbd46e5ab	-0.048558872
39	0x3ee6bac4	0.45064366
40	0xbd8236f5	-0.063581385
41	0xbd57500c	-0.052566573
42	0xbd7eefd9	-0.062240455
43	0xbda3143c	-0.07962844
44	0xbbc0c39e	-0.0058826944
45	0xbd38bdff	-0.04510307
46	0x3f1f1351	0.6213885
47	0xbe612871	-0.21988083
48	0x3bb025d6	0.005375604
49	0xbbe710ca	-0.007051562
50	0x3ef8a2e8	0.48561788
51	0x3beb2130	0.007175587
52	0xbd319439	-0.043354247
53	0xbdf2d026	-0.118561074
54	0xbd414976	-0.0471892
55	0xbb9f3891	-0.004859038
56	0xbd0d8684	-0.034552112
57	0xbcea9673	-0.028636193
58	0x3aa03758	0.0012223525
59	0x3dc4cbb0	0.09609163
60	0x3de717cf	0.11283838
61	0x3dac43e4	0.084113866
62	0x3e03984c	0.12851065
63	0xbe603b65	-0.21897657
64	0xbd6f8c63	-0.058483493
65	0xbe181c92	-0.14854649
66	0xbcf3e994	-0.029774465
67	0xbe154140	-0.14575672
68	0x3bc26832	0.005932831
69	0x3edf1a0a	0.43574554
70	0x3e640e7a	0.22271147
71	0xbf1966ff	-0.59922785
72	0x3f347d4b	0.7050368
73	0x3e6a8223	0.22901206
74	0xbc59caa0	-0.0132929385
75	0xbe11fbdd	-0.14256234
76	0xbccb2de8	-0.024802163
77	0x3f07e6d1	0.5308657
78	0xbebeb91e	-0.37250608
79	0xbd3efd9a	-0.046628572
80	0xbde3391a	-0.11094876
81	0x3ef559e1	0.47920135
82	0xbc934333	-0.017976379
83	0xbd6265f1	-0.055273
84	0x3ca43a0f	0.020047216
85	0x3ec64530	0.3872466
86	0xbc780a75	-0.015139212
87	0xbcff7b4b	-0.03118672
88	0x3f449b36	0.76799333
89	0x3ce305d7	0.027712746
90	0x3eb9bf5a	0.36278802
91	0xbe9cdef7	-0.3063886
92	0x3d3740ab	0.044739407
93	0x3f727cb5	0.9472154
94	0x3f73e369	0.95268875
95	0xbd8730c7	-0.066011004
96	0x3f26756d	0.6502293
97	0xbd836469	-0.06415636
98	0xbe07bd07	-0.13255702
99	0xbd331e61	-0.043730143
100	0xbe704d4a	-0.23466983
101	0xbe21db75	-0.15806372
102	0xbcbd1866	-0.023082923
103	0x3e214bb7	0.15751539
104	0x3f3ec877	0.74524635
105	0x3d8bb782	0.06822111
106	0x3dba2194	0.09088436
107	0xbdbe08b0	-0.09279001
108	0xbce3fe5c	-0.027831249
109	0xbda9bb41	-0.08287669
110	0x3c5a4d53	0.0133241
111	0xbd694487	-0.05695012
112	0x3f155f61	0.5834866
113	0x3e182712	0.14858654
114	0x3e90e389	0.28298596
115	0xbcf4004f	-0.029785303
116	0x3e4f5901	0.20248796
117	0xbdf0d2f2	-0.117589846
118	0x3eef075a	0.46685296
119	0xbd913247	-0.07089668

fc2.weight f4 [84, 120]
0	0x3c8b1b85	0.016980896
1	0x3e0a9eae	0.13537094
2	0xbb53d4da	-0.0032322914
3	0xbf055e52	-0.52097046
4	0x3cfe873a	0.03107034
5	0x38f1a97c	0.000115233444
6	0x3cba7623	0.02276141
7	0xbdac2180	-0.08404827
8	0x3c7215b5	0.014775683
9	0xbd99ffb6	-0.07519476
10	0x3c7bbca0	0.015364796
11	0xbd8c903b	-0.06863447
12	0xbd981d24	-0.07427433
13	0xbd7e79f8	-0.062128037
14	0xbe2fcec9	-0.17168726
15	0xbece07ed	-0.40240422
16	0x3ec88776	0.39165848
17	0xbccb2d40	-0.02480185
18	0xbea922ba	-0.33034307
19	0xbe8c280d	-0.27374306
20	0xbdeced4b	-0.115686975
21	0x3e3d0c06	0.18461618
22	0xbd99293e	-0.074785694
23	0x3d8577b4	0.06516972
24	0x3f200d27	0.6252007
25	0x3c9a14a9	0.01880868
26	0xbcb82799	-0.02247982
27	0x3d817fca	0.06323202
28	0xbda2c6f1	-0.07948101
29	0x3d03b64d	0.032156277
30	0xbdd20dc6	-0.10256533
31	0x3dbb3c69	0.09142382
32	0x3d8382f3	0.06421461
33	0x3dc376a0	0.0954411
34	0x3e2c8c6d	0.16850443
35	0xbe03ad91	-0.12859179
36	0x3d1fe2a1	0.03903449
37	0xbdbbd9e6	-0.0917242
38	0x3d445f66	0.04794254
39	0xbd35c4f7	-0.044377293
40	0x3d76aa55	0.060221035
41	0xbd5f2932	-0.054482646
42	0xbba75266	-0.005106258
43	0xbd820b0a	-0.06349762
44	0xbce28b5a	-0.027654339
45	0x3cbbc06d	0.022918904
46	0x3e2e2625	0.17006738
47	0xbdb141c7	-0.08655124
48	0xbc6140ed	-0.01374839
49	0xbcdf297a	-0.027241457
50	0xbef12e30	-0.4710555
51	0xbcb25540	-0.021769166
52	0x3ae4cc59	0.001745592
53	0xbc135b79	-0.008993977
54	0xbc9fefbe	-0.019523498
55	0xbd0f8b85	-0.035045166
56	0x3c0fc741	0.008775533
57	0xbcfbbdb9	-0.030730115
58	0x3d8258e4	0.06364611
59	0x3d04a4b9	0.032383654
60	0xbe821491	-0.25406316
61	0x3dbd7d8d	0.092524625
62	0xbd911d2c	-0.07085642
63	0x3e054218	0.13013494
64	0xbeab0e39	-0.3340929
65	0xbceac4ed	-0.028658355
66	0xbd75ee60	-0.060041785
67	0x3c182304	0.009285692
68	0xbd1d250e	-0.038365416
69	0xbd1cfa6e	-0.038324766
70	0xbcfac9e4	-0.030613847
71	0xbe34b247	-0.17646132
72	0xbdf99527	-0.12186652
73	0xbe49d76a	-0.1971108
74	0xbd322936	-0.043496333
75	0x3e7f7a18	0.24948919
76	0xbebcf691	-0.36906865
77	0x3c0e75e0	0.008695096
78	0x3d9f9362	0.07791783
79	0x3d9b2cb2	0.07576884
80	0x3c07f718	0.008298658
81	0xbeee596a	-0.46552593
82	0x3d18470b	0.037177127
83	0xbd9256f9	-0.07145495
84	0x3d41b06e	0.047287397
85	0x3dce80f8	0.100831926
86	0xbe1c9476	-0.15291008
87	0xbd9a8e0c	-0.075466245
88	0xbe5746c5	-0.2102309
89	0x3dff7af8	0.12474626
90	0xbd8fee20	-0.070278406
91	0xbe1671a6	-0.14691791
92	0x3ddf6cbc	0.10909411
93	0x3dcc7bc1	0.09984542
94	0x3e19f91a	0.15036431
95	0x3cf2922a	0.029610712
96	0xbe1fb005	-0.1559449
97	0xbdce0229	-0.10059006
98	0x3e1df43f	0.15425204
99	0x3d95a95b	0.073076926
100	0xbe50be3b	-0.20385067
101	0x3dfaa946	0.122393176
102	0x3a35a311	0.0006928901
103	0xbec8b3d7	-0.39199707
104	0xbe5d1360	-0.21589422
105	0xbe965de0	-0.29368496
106	0xbd780985	-0.060555954
107	0x3d13f53e	0.036122553
108	0x3d5fd739	0.05464861
109	0x3d260018	0.040527433
110	0xbd51921c	-0.05116473
111	0x3d049288	0.032366306
112	0x3d98152d	0.07425914
113	0xbc0db25a	-0.008648479
114	0x3d322006	0.04348757
115	0x3d4ed059	0.050491665
116	0xbe9bd7c1	-0.30438045
117	0xbe3fc751	-0.18728377
118	0xbe4d30e5	-0.20038183
119	0x3c81d664	0.0158493
120	0xbd1906dd	-0.03736006
121	0x3b0eab16	0.0021769456
122	0x3daf3b9c	0.085562915
123	0x3eab81dc	0.33497512
124	0x3ca3ecca	0.02001037
125	0x3d1fe826	0.039039753
126	0x3d724271	0.059145395
127	0x3c390167	0.011291838
128	0xbc9c9c23	-0.01911742
129	0xbd00d5a9	-0.031453762
130	0xbc55f164	-0.01305804
131	0xbe66a1ce	-0.22522661
132	0x3d9f21f2	0.077701464
133	0x3cad3da7	0.021147562
134	0xbe0b97fe	-0.13632199
135	0xbd863952	-0.06553902
136	0xbc90fcc1	-0.017698647
137	0xbd7177b7	-0.05895206
138	0xbd63b7a5	-0.05559506
139	0x3ea82a81	0.32844928
140	0xbd36b7b0	-0.04460877
141	0xbe77a9dd	-0.24185891
142	0x3e1fc8d9	0.15603961
143	0xbd07babf	-0.03313708
144	0xbebbdf88	-0.36693978
145	0xbdd4324b	-0.10361155
146	0xbd89f90c	-0.06736955
147	0xbd88ba10	-0.066761136
148	0x3e196eec	0.1498372
149	0xbe077a06	-0.13230142
150	0x3ceedc6a	0.029157836
151	0x3e0d2ea2	0.1378732
152	0x3d955125	0.07290868
153	0xbc02117b	-0.007938738
154	0xbda48134	-0.08032456
155	0xbbe230b0	-0.0069027767
156	0x3ef9f077	0.48816273
157	0xbe592f73	-0.21209507
158	0xbd184172	-0.03717179
159	0x3e3fec45	0.18742473
160	0x3d4d76b2	0.050162025
161	0xbb99d12f	-0.004694126
162	0xbb5504a0	-0.0032503977
163	0x3e4bece7	0.1991459
164	0x3d1f312e	0.03886526
165	0x3cc0fc7f	0.0235579
166	0x3d8d73ef	0.06906878
167	0x3e2df201	0.16986848
168	0x3dc7712e	0.09738384
169	0xbd72f190	-0.059312403
170	0xbce36ece	-0.027762797
171	0x3cd70a02	0.02624989
172	0x3d8bc65d	0.06824944
173	0x3e55bb5a	0.2087225
174	0xbd9a206d	-0.07525716
175	0xbeb4b031	-0.35290673
176	0x3df2e3b8	0.1185984
177	0xbd282bdb	-0.04105745
178	0xbe5e4f8c	-0.21710032
179	0x3cc1da59	0.023663687
180	0xbe66f604	-0.22554785
181	0xbd7c24c2	-0.061558492
182	0x3d88c47c	0.066781014
183	0xbe2deacb	-0.16984098
184	0x3dfe8447	0.12427574
185	0xbeb3b168	-0.35096288
186	0xbd7e8e98	-0.062147707
187	0x3cc8de75	0.024520138
188	0x3d0d844f	0.034550007
189	0x3e482d0e	0.19548437
190	0x3d943da5	0.0723832
191	0xbdad71d7	-0.08468979
192	0xbe9f9650	-0.31169367
193	0x3d69bce7	0.057064917
194	0xbc8e5dbc	-0.01737868
195	0x3d2da6e4	0.042395487
196	0xbd315eea	-0.043303408
197	0x3e08276c	0.13296288
198	0x3eb9c369	0.362819
199	0xbcbd0aa9	-0.023076372
200	0x3de46337	0.11151736
201	0xbc45483b	-0.012041147
202	0xbd852335	-0.06500856
203	0xbd069a13	-0.03286178
204	0x3dc70898	0.09718436
205	0x3e7cba42	0.24680427
206	0xbef48b3e	-0.47762483
207	0xbd15dad9	-0.036585663
208	0x3db1749c	0.086648196
209	0x3e30893b	0.1723985
210	0x3e7eb6e6	0.24874458
211	0xbe27f481	-0.16401865
212	0x3de764ce	0.11298524
213	0xbc3cd68c	-0.011525761
214	0x3d3de737	0.04636308
215	0xbc08217b	-0.008308764
216	0x3e61c5ee	0.2204816
217	0x3d1a619f	0.037690755
218	0xbd4bcfe4	-0.049758807
219	0x3c704fb3	0.014667439
220	0x3d7c0c9e	0.06153547
221	0x3c10eba9	0.008845248
222	0xbd8dc527	-0.069223695
223	0x3df31a6f	0.11870276
224	0x3e600e89	0.21880545
225	0xbdea2bc8	-0.11434132
226	0x3d3a262b	0.045446556
227	0x3cd3b62a	0.025843699
228	0x3daa8831	0.08326758
229	0xbc95597b	-0.018231144
230	0x3d91d9da	0.0712163
231	0x3d31b943	0.04338957
232	0xbcad6964	-0.021168418
233	0x3d5ce9db	0.05393396
234	0x3e84a8e8	0.25910115
235	0xbc25e1ca	-0.010124633
236	0xbe85e36d	-0.26150075
237	0x3e349505	0.17634971
238	0xbd20ded5	-0.03927501
239	0x3d20a6d8	0.039221615
240	0xbda643a4	-0.0811837
241	0xbdd4e656	-0.103954956
242	0xbde7ff7a	-0.11328025
243	0xba2c13c2	-0.00065642234
244	0x3d9a04e8	0.07520467
245	0x3b11f67c	0.002227216
246	0x3d8a78d6	0.06761329
247	0xbbd9b13c	-0.0066434424
248	0xbda87b90	-0.08226693
249	0x3e05ce8c	0.13067073
250	0xbcc86943	-0.024464255
251	0xbe963921	-0.2934046
252	0x3c719a28	0.014746226
253	0xbd60f98c	-0.054925486
254	0xbcef538e	-0.029214647
255	0xbd049826	-0.032371663

fc2.bias f4 [84]
0	0x3e0e613a	0.13904276
1	0x3ef347fa	0.4751585
2	0xbe8b0bd3	-0.2715746
3	0x3d43b14f	0.047776517
4	0x3ed5e7b6	0.41778344
5	0xbe4d1d12	-0.2003062
6	0xbeac5696	-0.3365981
7	0xbed171eb	-0.40907225
8	0xbe455af2	-0.19272974
9	0x3e42057c	0.18947405
10	0x3d498d67	0.049207117
11	0x3f2cde87	0.6752705
12	0x3dddd718	0.108320415
13	0x3f0e5c14	0.5560925
14	0xbd70e035	-0.05880757
15	0x3dc76ad5	0.097371735
16	0x3f68d660	0.9095211
17	0xbe1b91e9	-0.15192379
18	0xbdb65dbd	-0.08904598
19	0xbde8ae83	-0.113614105
20	0xbe9016fe	-0.28142542
21	0xbd180ff3	-0.037124585
22	0x3bae9367	0.0053276303
23	0xbeb7ab03	-0.3587266
24	0xbeb54aa5	-0.35408512
25	0x3d8fd922	0.07023837
26	0x3f44123a	0.7659031
27	0xbecec5aa	-0.4038518
28	0x3ec49417	0.38394234
29	0xbd994be2	-0.074851766
30	0xbe2acf05	-0.16680534
31	0xbeda9578	-0.4269216
32	0x3a41d04c	0.00073934044
33	0xbdef1b8e	-0.116751775
34	0x3e699a2b	0.22812717
35	0x3e09aeb5	0.13445552
36	0x3f10b7e4	0.56530595
37	0x3ef30eff	0.4747238
38	0x3e866254	0.26246893
39	0x3f0a1912	0.53944504
40	0xbe9afa61	-0.3026915
41	0xbe258043	-0.16162209
42	0xbeb63ce6	-0.35593337
43	0x3f7b8469	0.98248917
44	0xbe0265f4	-0.12734205
45	0xbd9e1524	-0.07718876
46	0xbe24ea99	-0.16105117
47	0x3f26754e	0.6502274
48	0xbe8dcbc3	-0.2769452
49	0xbe12943c	-0.1431436
50	0xbd83e045	-0.064392604
51	0xbf0aa6d0	-0.54160786
52	0xbed16dc2	-0.4090405
53	0x3eea66b0	0.4578147
54	0x3e1825b6	0.14858136
55	0xbe8e3da7	-0.27781412
56	0x3f025286	0.5090717
57	0xbe221383	-0.15827756
58	0x3f233182	0.6374742
59	0x3f915368	1.1353579
60	0x3ef55944	0.47919667
61	0xbd494cf3	-0.04914565
62	0xbf01f356	-0.50761926
63	0x3e6e97b6	0.2330006
64	0xbcd70d00	-0.026251316
65	0xbd97d8f6	-0.07414429
66	0xbda0f3f9	-0.07859034
67	0x3f29dd6c	0.6635349
68	0xbef9543d	-0.4869708
69	0xbe698527	-0.228047
70	0x3e8685c9	0.26273945
71	0x3f50dd0b	0.81587285
72	0x3ef87c25	0.48532215
73	0x3d50751d	0.050892938
74	0xbedcc04e	-0.43115467
75	0x3e867ec9	0.26268604
76	0x3e50b354	0.20380908
77	0xbe72df35	-0.23717959
78	0xbeae6672	-0.34062535
79	0x3f04547d	0.5169142
80	0x3e9c8f0f	0.30577895
81	0x3e8adec7	0.2712309
82	0xbde8d3a0	-0.11368489
83	0x3e3ea9a5	0.18619402

fc3.weight f4 [10, 84]
0	0xbf04e11b	-0.51905984
1	0xbd99dc38	-0.075127065
2	0xbe326ad1	-0.1742356
3	0xbd0d0b22	-0.034434445
4	0xbdcb809b	-0.09936639
5	0xbd7c0db8	-0.06153652
6	0xbf04f3ab	-0.5193431
7	0xbf39a243	-0.72513217
8	0xbd9e05da	-0.0771596
9	0xbd652a2b	-0.055948418
10	0xbd912f6a	-0.07089122
11	0x3dd838e9	0.1055773
12	0xbe832c60	-0.25619793
13	0x3c4bcc23	0.012438807
14	0xbecf36d2	-0.40471512
15	0x3dc54c06	0.09633641
16	0xbe29815f	-0.16553257
17	0xbed23608	-0.41056848
18	0xbd1297b5	-0.03578921
19	0x3d4c4257	0.049867954
20	0xbf5c0c5e	-0.8595637
21	0xbd8b33d9	-0.067969985
22	0xbd9c9514	-0.07645622
23	0xbef65f05	-0.4811937
24	0xbe0d86d9	-0.13820972
25	0xbda16b70	-0.0788182
26	0xbe7d9ba5	-0.24766405
27	0xbe9616b2	-0.2931419
28	0x3d0cd7d6	0.034385525
29	0x3c1060f9	0.008812183
30	0xbee4d792	-0.44695717
31	0xbe72fe5e	-0.23729846
32	0xbe47a93b	-0.1949815
33	0x3c478162	0.012176843
34	0xbf0fea92	-0.562173
35	0xbe304573	-0.17213993
36	0xbdb130a1	-0.08651853
37	0x3dab63cb	0.083686434
38	0xbe60a252	-0.2193692
39	0xbdaa700d	-0.08322153
40	0xbe4e1e43	-0.20128731
41	0xbe1a5e69	-0.15075077
42	0xbebd1233	-0.36927947
43	0xbeabee01	-0.3358002
44	0xbd4175e5	-0.047231574
45	0xbdc9ad3f	-0.09847497
46	0xbd955ae4	-0.07292727
47	0xbdd310ae	-0.10305916
48	0xbf18f4a9	-0.5974832
49	0xbcfe0bb9	-0.03101145
50	0xbe35308e	-0.17694303
51	0x3d967fce	0.073485956
52	0xbe4fd1dd	-0.202949
53	0xbe1049a8	-0.14090598
54	0x3dc3c278	0.09558576
55	0xbf02a18e	-0.5102776
56	0xbf1be73f	-0.6089973
57	0xbd43d51e	-0.047810666
58	0xbd90e894	-0.07075611
59	0x3d3569a9	0.04429022
60	0xbe6f5df5	-0.23375686
61	0xbee5b6df	-0.44866082
62	0xbef8ddc8	-0.48606706
63	0xbdd30db5	-0.10305349
64	0xbcae1bae	-0.021253433
65	0xbda9d488	-0.0829249
66	0xbcac3fb0	-0.021026462
67	0xbea0395b	-0.3129376
68	0x3e057d85	0.13036163
69	0xbe3538e3	-0.17697482
70	0xbe3dea6f	-0.1854646
71	0xbe7a569b	-0.244471
72	0xbd59e72b	-0.053198975
73	0x3dbac41e	0.09119438
74	0xbdd23c3c	-0.10265395
75	0xbe8c2b4f	-0.27376792
76	0xbe670f13	-0.22564344
77	0xbd73f155	-0.059556324
78	0xbdeab709	-0.114606924
79	0xbddd0d8c	-0.107935995
80	0xbea71963	-0.32636556
81	0x3df4e02c	0.1195682
82	0xbe2293e9	-0.15876736
83	0x3e18669c	0.14882892
84	0xbecf36ce	-0.404715
85	0xbe84bb9e	-0.2592439
86	0xbddb2302	-0.107000366
87	0x3cf7938a	0.03022172
88	0xbdeedea7	-0.11663561
89	0xbe41fe26	-0.18944606
90	0xbe55e4de	-0.20888087
91	0x3dd1dcdc	0.10247204
92	0xbe322a1c	-0.17398876
93	0x3e45fa02	0.19333652
94	0xbd28268b	-0.041052382
95	0xbe3f1715	-0.18661149
96	0x3d1be29a	0.0380579
97	0xbdfbdb4d	-0.12297688
98	0xbe27f270	-0.16401076
99	0x3c30d6a8	0.010793366
100	0xbf03802d	-0.51367456
101	0xbed61d8b	-0.41819414
102	0x3d1d68f1	0.038430158
103	0xbcabb681	-0.020961048
104	0xbf28745c	-0.6580255
105	0xbf3951d2	-0.7239047
106	0xbefa7dd5	-0.48924127
107	0xbf5617a1	-0.83629805
108	0xbec552a7	-0.3853962
109	0xbe049c5f	-0.12950276
110	0xbf1f8087	-0.6230549
111	0xbd9aa36a	-0.075507
112	0x3d7c18f7	0.061547246
113	0xbe1d220a	-0.15345016
114	0xbef0ae95	-0.47008196
115	0x3d3e7d45	0.046506185
116	0xbe2c6117	-0.16833912
117	0xbdce88d6	-0.10084693
118	0xbdbf4547	-0.093393855
119	0xbc94382e	-0.018093195
120	0xbea132ff	-0.3148422
121	0xbd260d37	-0.040539946
122	0xbe0d39bf	-0.1379156
123	0xbe762f90	-0.24041581
124	0xbe823a77	-0.2543523
125	0xbf17ee55	-0.5934804
126	0xbe046b12	-0.12931469
127	0xbdda0b79	-0.106467195
128	0x3c5b0f6d	0.013370377
129	0xbdc810dc	-0.09768841
130	0xbeac7287	-0.33681127
131	0xbd0bd451	-0.034138028
132	0xbf1b5383	-0.60674304
133	0xbcb94621	-0.022616448
134	0xbd059d7f	-0.032620903
135	0xbd7ff8e8	-0.062493235
136	0xbf81509a	-1.0102723
137	0xbec16bf5	-0.37777677
138	0xbe35bdff	-0.17748259
139	0xbe38796a	-0.18015066
140	0xbef36595	-0.47538438
141	0xbddf9027	-0.10916167
142	0xbeec21b1	-0.46119455
143	0xbe914a83	-0.2837716
144	0xbcc28808	-0.023746505
145	0xbd14953d	-0.036275137
146	0xbe8817ba	-0.26580602
147	0xbe4cddc8	-0.20006478
148	0xbe5052f7	-0.20344149
149	0xbda31a87	-0.07964044
150	0xbe5e94fa	-0.21736518
151	0xbee21ed4	-0.44164145
152	0x3dedc688	0.116101325
153	0xbe0c9bba	-0.1373128
154	0x3d910f9e	0.07083057
155	0x3cf5c56e	0.030001368
156	0xbd69a7c1	-0.05704475
157	0x3da1dd7f	0.07903575
158	0xbd0eab54	-0.03483136
159	0x3dbc539a	0.09195633
160	0xbd1ae680	-0.03781748
161	0xbe25961d	-0.16170545
162	0xbdcfd649	-0.101482935
163	0xbc0147de	-0.00789067
164	0xbef28794	-0.47369063
165	0xbe148b39	-0.14506234
166	0xbd118578	-0.035527676
167	0xbea1a6fa	-0.31572706
168	0xbe7dc3ce	-0.24781725
169	0x3d9bcb45	0.0760713
170	0xbe1eec40	-0.1551981
171	0xbe456dab	-0.19280116
172	0xbe5efdc3	-0.2177649
173	0xbdf0c708	-0.11756712
174	0xbee00ba3	-0.43758878
175	0xbf005e92	-0.501443
176	0xbda353b8	-0.079749525
177	0xbea280d3	-0.3173891
178	0x3d3d9c27	0.046291497
179	0xbe67f7bd	-0.22653098
180	0xbc77207e	-0.01508343
181	0xbe414765	-0.18874891
182	0xbda4b93b	-0.080431424
183	0xbc54a6ff	-0.012979268
184	0xbe0700f4	-0.13183957
185	0xbf0a69ee	-0.54067886
186	0x3d3e5548	0.04646805
187	0xbde1edf1	-0.11031712
188	0xbe186516	-0.14882311
189	0x3d7d0d45	0.061780233
190	0xbe1e1f08	-0.15441525
191	0xbd59ad77	-0.053143945
192	0xbf06ff9f	-0.52733797
193	0xbd275ca8	-0.04085985
194	0x3d8a1138	0.067415655
195	0xbf0dc4b9	-0.553783
196	0xbe12a2b6	-0.14319882
197	0xbc33fe08	-0.010985859
198	0xbe19380d	-0.14962788
199	0xbf06f01c	-0.5271013
200	0xbe9c81cd	-0.3056778
201	0xbd42ee7d	-0.04759072
202	0xbcb4b729	-0.022059994
203	0xbe17fb87	-0.14842044
204	0xbe9279e4	-0.2860862
205	0xbe869de6	-0.26292342
206	0xbc9f4934	-0.019444086
207	0xbd8529bf	-0.06502103
208	0xbec3fe9b	-0.38280186
209	0xbe8bc011	-0.27294973
210	0xbe8bc7d2	-0.27300888
211	0xbdef4fe0	-0.11685157
212	0xbdc06491	-0.093941815
213	0xbd840a40	-0.064472675
214	0xbebb76a4	-0.36613953
215	0xbe5dedcd	-0.21672745
216	0xbecdf60f	-0.4022679
217	0xbd79ab64	-0.060954466
218	0xbe6ed8b7	-0.23324858
219	0x3dc6083d	0.0966954
220	0xbd2d25fc	-0.042272553
221	0xbc30f0c1	-0.010799588
222	0xbda1a2c3	-0.078923725
223	0xbeb9e630	-0.36308432
224	0x3d6dd190	0.058061182
225	0xbdc6d070	-0.09707725
226	0xbdd67eec	-0.10473427
227	0x3cf5cdb7	0.030005319
228	0x3dd40265	0.10352019
229	0xbe2eaa58	-0.17057168
230	0xbe310793	-0.17288046
231	0xbe4aca18	-0.19803655
232	0xbe295e0a	-0.1653978
233	0xbea86976	-0.3289296
234	0xbe28b502	-0.16475299
235	0x3e1bb567	0.15205918
236	0xbe260180	-0.1621151
237	0xbd2cb6bf	-0.042166468
238	0x3c0f091d	0.0087302
239	0xbd79a511	-0.060948435
240	0xbd9350f4	-0.07193175
241	0xbdb7f6ec	-0.089826435
242	0xbe9f6a83	-0.3113595
243	0xbdd90a6c	-0.10597691
244	0xbe1539cb	-0.14572828
245	0xbe1c6381	-0.15272333
246	0xbde32f56	-0.11093013
247	0xbe470043	-0.19433694
248	0xbe34762a	-0.17623201
249	0x3d12b48b	0.03581671
250	0xbd7c25e9	-0.06155959
251	0x3dec4b54	0.11537805
252	0xbd4cff15	-0.050047953
253	0x3d877546	0.06614165
254	0xbedf3e18	-0.4360206
255	0xbdc5554f	-0.09635412

fc3.bias f4 [10]
0	0xbe457be6	-0.19285545
1	0xbe2c2c71	-0.16813828
2	0xbe4e5405	-0.20149238
3	0x3e8c7d8b	0.27439532
4	0x3eefa48b	0.46805224
5	0xbe18ed0a	-0.14934173
6	0x3ea0d96c	0.3141588
7	0xbe95de6d	-0.2927126
8	0x3e8c0a89	0.27351788
9	0xbde9626f	-0.11395728
