Deep Wizard/mnist_model.pkl (torch_old, 31964 bytes, 2 tensors)

linear.weight f4 [10, 784]
000000 e1 6c 0d 3d 84 3d 18 3c a0 13 88 ba 1c cb e0 bc
       0.034527663 0.00929201 -0.0010381825 -0.0274406
000010 00 58 ea b9 88 e0 8d bb 38 9d 9c 3c ba a5 fe bc
       -0.00044697523 -0.0043297447 0.019117936 -0.031084884
000020 38 30 d0 bb ca b3 6e bc 14 fe fb bb d8 d3 a9 3c
       -0.0063534044 -0.014569232 -0.0076902006 0.020730898
000030 4a c2 da bc e7 6b aa 3c 51 22 be bc b6 a0 5e 3b
       -0.026703972 0.020803405 -0.023209723 0.0033970303
000040 2a 1b d6 bc a0 65 1d 3c 10 6d 3a 3b 92 37 54 bc
       -0.026136 0.009606749 0.0028446354 -0.012952702
000050 22 3a 0b bd 9c 16 5a bc d3 af 91 bc 4a 79 6d bc
       -0.033990987 -0.013311055 -0.017784035 -0.01449425
000060 b8 ef 79 bc 20 cd 64 3b 7a 11 9b bc f4 39 08 3c
       -0.015254907 0.0034912303 -0.018929232 0.008314598
000070 48 ab c6 bc 80 f0 c0 3c 2e 77 03 bd 5c d5 a4 bb
       -0.024251595 0.02355218 -0.03209608 -0.005030317
000080 6f c7 2e bb 3a b0 5e bc e9 70 26 3c ca f3 d7 bc
       -0.0026669165 -0.01359182 0.010158756 -0.026361365
000090 83 f6 ac bc fa 44 b4 bb 4a 1c f2 3c 1b 6d b9 bc
       -0.02111364 -0.0055013867 0.029554505 -0.022635033
0000a0 5b a3 3a 3c a4 65 e4 bc 4e 46 46 bc 1a 43 c3 3c
       0.011391486 -0.027880497 -0.012101723 0.023835707
0000b0 a1 da bc 3b 69 f4 d7 bb e1 2a 04 3c d7 84 c0 bc
       0.0057633673 -0.0065904153 0.008066864 -0.023500843
0000c0 cd 59 0b bd c0 82 17 ba 66 37 cd bc 5e 76 06 3d
       -0.034021188 -0.0005779676 -0.02505083 0.032827727
0000d0 d0 f3 d6 bc 31 27 09 3d ec 2b cf 3c 14 73 03 bd
       -0.026239306 0.03348464 0.025289498 -0.03209217
0000e0 dc f2 6c bc de da e6 bc e5 81 ad bc f0 71 23 3c
       -0.014462199 -0.028180536 -0.021180103 0.009975895
0000f0 35 02 49 bb 76 e0 6c 3b 52 bc ba bc 98 e7 8b bc
       -0.0030671482 0.0036144531 -0.022794876 -0.017078206
000100 74 81 12 bd 6d ea 99 3c 7a 09 bb 3c 9f 5c 17 bd
       -0.035767987 0.01878854 0.022831667 -0.036953565
000110 5e bc d1 bc 28 54 4a bc 3f c8 86 3c 08 8b e3 3c
       -0.025602516 -0.012349166 0.016452907 0.027776256
000120 d1 28 cf 3c 62 cd a2 3b 03 4d a4 3b 57 4e ec 3c
       0.025288017 0.004968331 0.0050140633 0.02884595
000130 ef 33 67 bc e6 55 11 3c 69 dc 01 bd 86 00 fe 3c
       -0.014111503 0.008870577 -0.03170434 0.031006109
000140 9f 1a 08 3d de fa a6 3c e3 91 03 3d 38 6d 99 3c
       0.033228513 0.020383295 0.03212155 0.018728837
000150 e8 9a 8f 3b 6e b8 8d bc e5 5b fb 3c 20 d2 05 bd
       0.00438248 -0.017299857 0.030683467 -0.032671094
000160 61 ad ad 3c 96 44 cd bc fe f7 77 bc e5 68 2c bc
       0.021200838 -0.025057118 -0.01513481 -0.010523056
000170 47 58 d7 bc 48 c4 ea 3c b3 32 d9 bc bf e5 99 bb
       -0.026287211 0.028658047 -0.026513433 -0.0046965773
000180 bc 14 29 bd f7 57 0b bd 53 e2 8d 3c ab 42 f7 3b
       -0.04127954 -0.034019437 0.017319834 0.0075457892
000190 bb 55 25 bd 94 ef ca bc f0 2e e8 bc 91 5d eb 3c
       -0.040364962 -0.024772443 -0.028342694 0.02873114
0001a0 62 86 93 3c 15 af ae 3c 0a 82 77 bc 05 0c b0 bc
       0.018008415 0.02132372 -0.015106687 -0.021490106
0001b0 2d 95 0e 3d 43 70 a8 bc d1 b4 9f 3c b5 f9 e1 bc
       0.034810234 -0.020561343 0.0194954 -0.02758489
0001c0 fc d7 af bc 0b 4a e3 3c aa 19 cb 3c 56 6f bd 3c
       -0.021465294 0.027745267 0.024792511 0.023124378
0001d0 fa 83 07 bd d0 e0 8e 3c 16 26 c9 3b a0 9d 4a 3c
       -0.033084847 0.017441183 0.0061385734 0.012366682
0001e0 d8 2f d9 3a 41 70 82 3c 5b 11 f9 3b 64 37 a5 ba
       0.0016570045 0.015922667 0.007600946 -0.0012605009
0001f0 69 41 25 bd ea da 94 3c 45 dd 11 ba ec 02 83 bc
       -0.040345583 0.018170793 -0.0005564283 -0.015992604
000200 fe 33 3c 3c 56 4f df 3c 06 cc 71 bb 4f 8e 69 bc
       0.011487005 0.02725951 -0.003689529 -0.01425512
000210 7b 01 9d bc 08 ad ef bb b1 a3 8d 3c a0 ce 8d 3c
       -0.019165745 -0.007314328 0.017289968 0.01731044
000220 49 77 ad 3c ca 07 39 bb d6 99 54 3c b5 f7 4a 39
       0.021175044 -0.0028233402 0.0129761305 0.00019356499
000230 ce 66 f1 3c 9e f4 d9 bc 85 d5 66 bc 09 06 57 3c
       0.029467966 -0.0266059 -0.014088993 0.0131239975
000240 35 87 f7 ba 77 91 ba 3c 4b 5b 1e 3c 3a ef 0c bd
       -0.0018884899 0.022774441 0.009665321 -0.03440783
000250 79 a8 11 bb 4e da 40 bd 40 c9 ac bb 88 fb 1f bd
       -0.0022225662 -0.04708319 -0.0052730143 -0.03905824
000260 7e de 93 bc 17 b9 be 3c 97 b7 53 3d b1 17 18 3d
       -0.018050428 0.023281617 0.051688757 0.03713197
000270 ac cf 07 3d 71 85 81 3d 9d 33 aa bb 1e e3 dd 3c
       0.033157036 0.0632428 -0.005194141 0.027085837
000280 c2 69 d4 bb 50 3b 18 3c 52 34 4a 3c 29 f4 64 bc
       -0.006482334 0.009291485 0.012341576 -0.013974228
000290 fd 7e 3b 3c 13 bb b5 ba 2f 84 0a 3d 25 ec ad 3c
       0.011443851 -0.0013864957 0.033817466 0.021230767
0002a0 6e c7 ad 3c 84 8f 00 ba 64 e2 a8 bc 6f fb 03 bc
       0.02121326 -0.0004904198 -0.020615764 -0.008055552
0002b0 31 58 67 bb 0b 13 85 3c 03 b3 27 3c 01 e1 b8 bc
       -0.003530037 0.016244432 0.010235551 -0.022568228
0002c0 64 d3 20 bc ec 4c 22 bd 4b 86 cb b9 9b 1a 61 bc
       -0.009816024 -0.03962414 -0.00038819233 -0.013739253
0002d0 e7 93 1b bc 42 5b 7d 3c ac 10 8d 3c d4 92 5e 3c
       -0.009495712 0.015463652 0.017219864 0.013584811
0002e0 68 af 68 3c a2 e4 24 3d 23 c4 8b 3d 79 2f d6 3c
       0.014201976 0.040257104 0.068245195 0.026145684
0002f0 29 cc 32 bc 14 be 34 3c 03 5c ef bb ba 56 7c 3c
       -0.010912933 0.011031646 -0.00730467 0.015401537
000300 84 ae 25 bd 37 ef 93 3c 20 fb 6a bc 57 37 ed 3c
       -0.040449634 0.018058402 -0.014342099 0.028957052
000310 8b a6 4b 3c 93 89 ae 3c c0 02 6a bb 15 30 8b bc
       0.012429844 0.021305835 -0.0035707206 -0.0169907
000320 c0 a5 07 bd 45 d5 c5 bb 98 72 d2 3c 47 49 08 3b
       -0.033117056 -0.0060373866 0.025689408 0.002079563
000330 b3 0f 07 bd b3 44 37 3c 94 5f a1 bc 5a 58 41 3c
       -0.032973956 0.011185813 -0.019698896 0.01180085
000340 0f 68 33 3d 87 b7 f7 3b 59 89 e3 3b df c3 0b 3c
       0.04380041 0.00755972 0.0069438634 0.008530586
000350 b0 83 a7 3b 36 06 bd 3c 37 69 38 3d 8b 4a e1 3c
       0.005112134 0.02307425 0.045022216 0.027501365
000360 8c 38 c2 3c 0f f9 3d 3c a6 a3 bb bc 0e 3a 30 3c
       0.023708604 0.011595025 -0.022905182 0.010756029
000370 3f 2c 35 bb 3a f4 1c bd e7 ad 88 3b b9 c4 f8 3c
       -0.002764478 -0.03831885 0.0041711214 0.030367242
000380 82 02 e5 3b 0d 44 a4 3c 1c 9d 03 3b 7d 50 85 3c
       0.0069888243 0.02005198 0.0020082658 0.016273731
000390 47 a7 6a bc 8b 45 46 3c d8 ab 75 bb 2d ef f5 bc
       -0.014322109 0.012101541 -0.003748646 -0.030021274
0003a0 93 e5 7c ba f8 d9 18 3c 36 ca 48 bc 26 f7 7d bc
       -0.00096472463 0.009329312 -0.012255242 -0.015500819
0003b0 64 4b 2c 3d b3 7c 34 3d 70 e2 58 3d 4f ce cc 3a
       0.042064086 0.044064235 0.052950323 0.001562545
0003c0 e0 d2 1d 3d a4 24 58 3d e9 f6 08 3d 6a 94 96 3d
       0.038531184 0.05276932 0.033438597 0.073525265
0003d0 70 30 7c 3d 42 fe 41 3d 6f 61 1f 3d 2a a3 cb 3c
       0.06156963 0.04736162 0.03891128 0.024858076
0003e0 eb 95 d8 3c 75 a5 94 bc ea c5 8f 3c 77 12 05 3d
       0.026438674 -0.018145302 0.017550427 0.032488313
0003f0 25 df b0 3c 77 11 29 bb b6 66 a7 3b 0e 4f 09 3d
       0.021590779 -0.0025797763 0.0051086796 0.033522658

linear.bias f4 [10]
000000 05 26 63 bd dc fc b7 3d c9 fa 17 bd 12 71 34 3c
       -0.05545618 0.08983776 -0.0371044 0.011013286
000010 29 fc d6 bb c7 ff 2a 3d a6 8d c0 3c 4a bf 80 3b
       -0.0065608216 0.041747835 0.023505043 0.0039290534
000020 cc 06 71 bc 15 51 39 3c
       -0.014711093 0.011310835
